{
  "layers" : [
    {
      "bottom" : "input_1",
      "alpha" : 1,
      "operation" : 117,
      "beta" : 0,
      "weights" : {

      },
      "fused_relu" : 0,
      "debug_info" : "functional_1\/embedding\/Cast_floor",
      "top" : "functional_1\/embedding\/Cast_floor",
      "type" : "elementwise",
      "name" : "functional_1\/embedding\/Cast_floor",
      "attributes" : {
        "basic_block_head" : 1
      }
    },
    {
      "bottom" : "input_1",
      "alpha" : 1,
      "operation" : 118,
      "weights" : {

      },
      "fused_relu" : 0,
      "debug_info" : "functional_1\/embedding\/Cast_ceil",
      "top" : "functional_1\/embedding\/Cast_ceil",
      "type" : "elementwise",
      "name" : "functional_1\/embedding\/Cast_ceil",
      "beta" : 0
    },
    {
      "bottom" : "",
      "k" : 1,
      "n" : 1,
      "weights" : {

      },
      "h" : 1,
      "debug_info" : "functional_1\/embedding\/Cast_cond",
      "constant_blob" : 1,
      "top" : "functional_1\/embedding\/Cast_cond_load_constant_3",
      "w" : 1,
      "type" : "load_constant",
      "name" : "functional_1\/embedding\/Cast_cond_load_constant_3"
    },
    {
      "bottom" : "input_1,functional_1\/embedding\/Cast_cond_load_constant_3",
      "alpha" : 1,
      "operation" : 105,
      "weights" : {

      },
      "fused_relu" : 0,
      "debug_info" : "functional_1\/embedding\/Cast_cond",
      "top" : "functional_1\/embedding\/Cast_cond",
      "type" : "elementwise",
      "name" : "functional_1\/embedding\/Cast_cond",
      "beta" : 0
    },
    {
      "bottom" : "functional_1\/embedding\/Cast_cond,functional_1\/embedding\/Cast_floor,functional_1\/embedding\/Cast_ceil",
      "alpha" : 1,
      "operation" : 101,
      "weights" : {

      },
      "fused_relu" : 0,
      "debug_info" : "functional_1\/embedding\/Cast",
      "nd_mode" : true,
      "top" : "functional_1\/embedding\/Cast",
      "type" : "elementwise",
      "name" : "functional_1\/embedding\/Cast",
      "beta" : 0
    },
    {
      "bottom" : "",
      "k" : 1,
      "n" : 1,
      "weights" : {

      },
      "h" : 1,
      "debug_info" : "functional_1\/embedding\/NotEqual",
      "constant_blob" : 3,
      "top" : "functional_1\/embedding\/NotEqual_load_constant_5",
      "w" : 1,
      "type" : "load_constant",
      "name" : "functional_1\/embedding\/NotEqual_load_constant_5"
    },
    {
      "bottom" : "input_1,functional_1\/embedding\/NotEqual_load_constant_5",
      "alpha" : 1,
      "operation" : 107,
      "weights" : {

      },
      "fused_relu" : 0,
      "debug_info" : "functional_1\/embedding\/NotEqual",
      "top" : "functional_1\/embedding\/NotEqual",
      "type" : "elementwise",
      "name" : "functional_1\/embedding\/NotEqual",
      "beta" : 0
    },
    {
      "size_of_axes" : 1,
      "bottom" : "functional_1\/embedding\/Cast",
      "axes_0" : -1,
      "weights" : {

      },
      "nd_axis" : 0,
      "debug_info" : "functional_1\/embedding\/embedding_lookup_expand_dims",
      "top" : "functional_1\/embedding\/embedding_lookup_expand_dims",
      "type" : "expand_dims",
      "name" : "functional_1\/embedding\/embedding_lookup_expand_dims"
    },
    {
      "nB" : 14,
      "top" : "functional_1\/embedding\/embedding_lookup",
      "has_biases" : 0,
      "nd_mode" : true,
      "nC" : 10,
      "blob_weights" : 5,
      "weights" : {

      },
      "is_lookup" : 1,
      "type" : "inner_product",
      "has_relu" : 0,
      "bottom" : "functional_1\/embedding\/embedding_lookup_expand_dims",
      "debug_info" : "functional_1\/embedding\/embedding_lookup",
      "has_tanh" : 0,
      "hint_fallback_from_metal" : 1,
      "name" : "functional_1\/embedding\/embedding_lookup",
      "has_prelu" : 0
    },
    {
      "size_of_axes" : 1,
      "bottom" : "functional_1\/embedding\/NotEqual",
      "axes_0" : -1,
      "weights" : {

      },
      "nd_axis" : 0,
      "debug_info" : "functional_1\/bidirectional\/forward_lstm\/PartitionedCall\/ExpandDims",
      "top" : "functional_1\/bidirectional\/forward_lstm\/PartitionedCall\/ExpandDims",
      "type" : "expand_dims",
      "name" : "functional_1\/bidirectional\/forward_lstm\/PartitionedCall\/ExpandDims"
    },
    {
      "size_of_axes" : 1,
      "bottom" : "functional_1\/embedding\/NotEqual",
      "axes_0" : -1,
      "weights" : {

      },
      "nd_axis" : 0,
      "debug_info" : "functional_1\/bidirectional\/backward_lstm\/PartitionedCall\/ExpandDims",
      "top" : "functional_1\/bidirectional\/backward_lstm\/PartitionedCall\/ExpandDims",
      "type" : "expand_dims",
      "name" : "functional_1\/bidirectional\/backward_lstm\/PartitionedCall\/ExpandDims"
    },
    {
      "size_of_axes" : 1,
      "bottom" : "functional_1\/embedding\/NotEqual",
      "axes_0" : -1,
      "weights" : {

      },
      "nd_axis" : 0,
      "debug_info" : "functional_1\/bidirectional_1\/forward_lstm_1\/PartitionedCall\/ExpandDims",
      "top" : "functional_1\/bidirectional_1\/forward_lstm_1\/PartitionedCall\/ExpandDims",
      "type" : "expand_dims",
      "name" : "functional_1\/bidirectional_1\/forward_lstm_1\/PartitionedCall\/ExpandDims"
    },
    {
      "size_of_axes" : 1,
      "bottom" : "functional_1\/embedding\/NotEqual",
      "axes_0" : -1,
      "weights" : {

      },
      "nd_axis" : 0,
      "debug_info" : "functional_1\/bidirectional_1\/backward_lstm_1\/PartitionedCall\/ExpandDims",
      "top" : "functional_1\/bidirectional_1\/backward_lstm_1\/PartitionedCall\/ExpandDims",
      "type" : "expand_dims",
      "name" : "functional_1\/bidirectional_1\/backward_lstm_1\/PartitionedCall\/ExpandDims"
    },
    {
      "bottom" : "functional_1\/embedding\/embedding_lookup",
      "weights" : {

      },
      "nd_mode" : 1,
      "axis" : -1,
      "debug_info" : "functional_1\/bidirectional\/forward_lstm\/ones_like\/Shape",
      "top" : "functional_1\/bidirectional\/forward_lstm\/ones_like\/Shape",
      "type" : "get_shape",
      "name" : "functional_1\/bidirectional\/forward_lstm\/ones_like\/Shape"
    },
    {
      "bottom" : "functional_1\/embedding\/embedding_lookup",
      "weights" : {

      },
      "nd_mode" : 1,
      "axis" : -1,
      "debug_info" : "functional_1\/bidirectional\/forward_lstm\/Shape",
      "top" : "functional_1\/bidirectional\/forward_lstm\/Shape",
      "type" : "get_shape",
      "name" : "functional_1\/bidirectional\/forward_lstm\/Shape"
    },
    {
      "bottom" : "functional_1\/embedding\/embedding_lookup",
      "weights" : {

      },
      "nd_mode" : 1,
      "axis" : -1,
      "debug_info" : "functional_1\/bidirectional\/backward_lstm\/ones_like\/Shape",
      "top" : "functional_1\/bidirectional\/backward_lstm\/ones_like\/Shape",
      "type" : "get_shape",
      "name" : "functional_1\/bidirectional\/backward_lstm\/ones_like\/Shape"
    },
    {
      "bottom" : "functional_1\/embedding\/embedding_lookup",
      "weights" : {

      },
      "nd_mode" : 1,
      "axis" : -1,
      "debug_info" : "functional_1\/bidirectional\/backward_lstm\/Shape",
      "top" : "functional_1\/bidirectional\/backward_lstm\/Shape",
      "type" : "get_shape",
      "name" : "functional_1\/bidirectional\/backward_lstm\/Shape"
    },
    {
      "axis_h" : 2,
      "axis_w" : 0,
      "bottom" : "functional_1\/bidirectional\/forward_lstm\/PartitionedCall\/ExpandDims",
      "axis_k" : 1,
      "axis_n" : 3,
      "axis_seq" : 4,
      "weights" : {

      },
      "debug_info" : "functional_1\/bidirectional\/forward_lstm\/PartitionedCall\/transpose_1",
      "top" : "functional_1\/bidirectional\/forward_lstm\/PartitionedCall\/transpose_1",
      "type" : "transpose",
      "name" : "functional_1\/bidirectional\/forward_lstm\/PartitionedCall\/transpose_1"
    },
    {
      "axis_h" : 2,
      "axis_w" : 0,
      "bottom" : "functional_1\/bidirectional\/backward_lstm\/PartitionedCall\/ExpandDims",
      "axis_k" : 1,
      "axis_n" : 3,
      "axis_seq" : 4,
      "weights" : {

      },
      "debug_info" : "functional_1\/bidirectional\/backward_lstm\/PartitionedCall\/transpose_1",
      "top" : "functional_1\/bidirectional\/backward_lstm\/PartitionedCall\/transpose_1",
      "type" : "transpose",
      "name" : "functional_1\/bidirectional\/backward_lstm\/PartitionedCall\/transpose_1"
    },
    {
      "axis_h" : 2,
      "axis_w" : 0,
      "bottom" : "functional_1\/bidirectional_1\/forward_lstm_1\/PartitionedCall\/ExpandDims",
      "axis_k" : 1,
      "axis_n" : 3,
      "axis_seq" : 4,
      "weights" : {

      },
      "debug_info" : "functional_1\/bidirectional_1\/forward_lstm_1\/PartitionedCall\/transpose_1",
      "top" : "functional_1\/bidirectional_1\/forward_lstm_1\/PartitionedCall\/transpose_1",
      "type" : "transpose",
      "name" : "functional_1\/bidirectional_1\/forward_lstm_1\/PartitionedCall\/transpose_1"
    },
    {
      "axis_h" : 2,
      "axis_w" : 0,
      "bottom" : "functional_1\/bidirectional_1\/backward_lstm_1\/PartitionedCall\/ExpandDims",
      "axis_k" : 1,
      "axis_n" : 3,
      "axis_seq" : 4,
      "weights" : {

      },
      "debug_info" : "functional_1\/bidirectional_1\/backward_lstm_1\/PartitionedCall\/transpose_1",
      "top" : "functional_1\/bidirectional_1\/backward_lstm_1\/PartitionedCall\/transpose_1",
      "type" : "transpose",
      "name" : "functional_1\/bidirectional_1\/backward_lstm_1\/PartitionedCall\/transpose_1"
    },
    {
      "bottom" : "functional_1\/bidirectional\/forward_lstm\/ones_like\/Shape",
      "weights" : {

      },
      "nd_mode" : 1,
      "debug_info" : "functional_1\/bidirectional\/forward_lstm\/ones_like",
      "value" : 1,
      "top" : "functional_1\/bidirectional\/forward_lstm\/ones_like",
      "type" : "fill",
      "name" : "functional_1\/bidirectional\/forward_lstm\/ones_like"
    },
    {
      "begin_n" : 0,
      "end_mask_h" : false,
      "end_w" : 1,
      "end_h" : 1,
      "begin_h" : 0,
      "stride_n" : 1,
      "end_seq" : 1,
      "attributes" : {
        "basic_block_head" : 1
      },
      "begin_mask_seq" : false,
      "begin_mask_h" : false,
      "stride_k" : 1,
      "squeeze_mask_h" : false,
      "type" : "general_slice",
      "begin_mask_k" : false,
      "begin_w" : 0,
      "end_mask_k" : false,
      "weights" : {

      },
      "stride_h" : 1,
      "begin_mask_n" : false,
      "name" : "functional_1\/bidirectional\/forward_lstm\/strided_slice",
      "stride_seq" : 1,
      "end_k" : 1,
      "top" : "functional_1\/bidirectional\/forward_lstm\/strided_slice",
      "begin_seq" : 0,
      "begin_k" : 0,
      "squeeze_mask_k" : false,
      "end_mask_w" : false,
      "end_mask_seq" : false,
      "end_mask_n" : false,
      "debug_info" : "functional_1\/bidirectional\/forward_lstm\/strided_slice",
      "stride_w" : 2147483647,
      "squeeze_mask_seq" : false,
      "begin_mask_w" : false,
      "bottom" : "functional_1\/bidirectional\/forward_lstm\/Shape",
      "end_n" : 1,
      "squeeze_mask_w" : true,
      "squeeze_mask_n" : false
    },
    {
      "bottom" : "functional_1\/bidirectional\/backward_lstm\/ones_like\/Shape",
      "weights" : {

      },
      "nd_mode" : 1,
      "debug_info" : "functional_1\/bidirectional\/backward_lstm\/ones_like",
      "value" : 1,
      "top" : "functional_1\/bidirectional\/backward_lstm\/ones_like",
      "type" : "fill",
      "name" : "functional_1\/bidirectional\/backward_lstm\/ones_like"
    },
    {
      "begin_n" : 0,
      "end_mask_h" : false,
      "end_w" : 1,
      "end_h" : 1,
      "begin_h" : 0,
      "stride_n" : 1,
      "end_seq" : 1,
      "attributes" : {
        "basic_block_head" : 1
      },
      "begin_mask_seq" : false,
      "begin_mask_h" : false,
      "stride_k" : 1,
      "squeeze_mask_h" : false,
      "type" : "general_slice",
      "begin_mask_k" : false,
      "begin_w" : 0,
      "end_mask_k" : false,
      "weights" : {

      },
      "stride_h" : 1,
      "begin_mask_n" : false,
      "name" : "functional_1\/bidirectional\/backward_lstm\/strided_slice",
      "stride_seq" : 1,
      "end_k" : 1,
      "top" : "functional_1\/bidirectional\/backward_lstm\/strided_slice",
      "begin_seq" : 0,
      "begin_k" : 0,
      "squeeze_mask_k" : false,
      "end_mask_w" : false,
      "end_mask_seq" : false,
      "end_mask_n" : false,
      "debug_info" : "functional_1\/bidirectional\/backward_lstm\/strided_slice",
      "stride_w" : 2147483647,
      "squeeze_mask_seq" : false,
      "begin_mask_w" : false,
      "bottom" : "functional_1\/bidirectional\/backward_lstm\/Shape",
      "end_n" : 1,
      "squeeze_mask_w" : true,
      "squeeze_mask_n" : false
    },
    {
      "top" : "tf_make_list_0",
      "w" : 1,
      "h" : 1,
      "name" : "tf_make_list_0",
      "nd_rank" : 3,
      "type" : "load_constant",
      "k" : 82,
      "bottom" : "",
      "debug_info" : "tf_make_list_0",
      "n" : 1,
      "weights" : {

      },
      "constant_blob" : 7
    },
    {
      "top" : "range_1d_0",
      "w" : 82,
      "h" : 1,
      "name" : "range_1d_0",
      "nd_rank" : 1,
      "type" : "load_constant",
      "k" : 1,
      "bottom" : "",
      "debug_info" : "range_1d_0",
      "n" : 1,
      "weights" : {

      },
      "constant_blob" : 9
    },
    {
      "axis_mode" : 1,
      "bottom" : "range_1d_0",
      "weights" : {

      },
      "mode" : 9,
      "nd_axis" : 0,
      "nd_mode" : true,
      "debug_info" : "range_1d_0_max",
      "use_version" : 1,
      "top" : "range_1d_0_max_squeeze",
      "type" : "reduce",
      "name" : "range_1d_0_max"
    },
    {
      "size_of_axes" : 1,
      "bottom" : "range_1d_0_max_squeeze",
      "axes_0" : 0,
      "weights" : {

      },
      "nd_axis" : 0,
      "debug_info" : "range_1d_0_max",
      "version" : 1,
      "top" : "range_1d_0_max",
      "type" : "squeeze",
      "name" : "range_1d_0_max"
    },
    {
      "bottom" : "tf_make_list_0",
      "weights" : {

      },
      "nd_mode" : 1,
      "axis" : -1,
      "debug_info" : "tf_make_list_0_full_shape",
      "top" : "tf_make_list_0_full_shape",
      "type" : "get_shape",
      "name" : "tf_make_list_0_full_shape"
    },
    {
      "begin_n" : 0,
      "end_mask_h" : false,
      "end_w" : 1,
      "end_h" : 1,
      "begin_h" : 0,
      "stride_n" : 1,
      "end_seq" : 1,
      "begin_mask_seq" : false,
      "begin_mask_h" : false,
      "squeeze_mask_h" : false,
      "stride_k" : 1,
      "type" : "general_slice",
      "begin_mask_k" : false,
      "begin_w" : 0,
      "end_mask_k" : false,
      "weights" : {

      },
      "stride_h" : 1,
      "begin_mask_n" : false,
      "name" : "tf_make_list_0_length",
      "stride_seq" : 1,
      "end_k" : 1,
      "top" : "tf_make_list_0_length",
      "begin_seq" : 0,
      "squeeze_mask_k" : false,
      "begin_k" : 0,
      "end_mask_w" : false,
      "end_mask_seq" : false,
      "end_mask_n" : false,
      "debug_info" : "tf_make_list_0_length",
      "stride_w" : 1,
      "squeeze_mask_seq" : false,
      "begin_mask_w" : false,
      "bottom" : "tf_make_list_0_full_shape",
      "end_n" : 1,
      "squeeze_mask_w" : false,
      "squeeze_mask_n" : false
    },
    {
      "bottom" : "functional_1\/bidirectional\/forward_lstm\/PartitionedCall\/transpose_1",
      "weights" : {

      },
      "nd_mode" : 1,
      "axis" : -1,
      "debug_info" : "tf_make_list_0_raw_value_elem_shape",
      "top" : "tf_make_list_0_raw_value_elem_shape",
      "type" : "get_shape",
      "name" : "tf_make_list_0_raw_value_elem_shape"
    },
    {
      "begin_n" : 0,
      "end_mask_h" : false,
      "end_w" : -1,
      "end_h" : 1,
      "begin_h" : 0,
      "stride_n" : 1,
      "end_seq" : 1,
      "begin_mask_seq" : false,
      "begin_mask_h" : false,
      "squeeze_mask_h" : false,
      "stride_k" : 1,
      "type" : "general_slice",
      "begin_mask_k" : false,
      "begin_w" : 1,
      "end_mask_k" : false,
      "weights" : {

      },
      "stride_h" : 1,
      "begin_mask_n" : false,
      "name" : "tf_make_list_0_value_elem_shape",
      "stride_seq" : 1,
      "end_k" : 1,
      "top" : "tf_make_list_0_value_elem_shape",
      "begin_seq" : 0,
      "squeeze_mask_k" : false,
      "begin_k" : 0,
      "end_mask_w" : true,
      "end_mask_seq" : false,
      "end_mask_n" : false,
      "debug_info" : "tf_make_list_0_value_elem_shape",
      "stride_w" : 1,
      "squeeze_mask_seq" : false,
      "begin_mask_w" : false,
      "bottom" : "tf_make_list_0_raw_value_elem_shape",
      "end_n" : 1,
      "squeeze_mask_w" : false,
      "squeeze_mask_n" : false
    },
    {
      "begin_n" : 0,
      "end_mask_h" : false,
      "end_w" : -1,
      "end_h" : 1,
      "begin_h" : 0,
      "stride_n" : 1,
      "end_seq" : 1,
      "begin_mask_seq" : false,
      "begin_mask_h" : false,
      "squeeze_mask_h" : false,
      "stride_k" : 1,
      "type" : "general_slice",
      "begin_mask_k" : false,
      "begin_w" : 1,
      "end_mask_k" : false,
      "weights" : {

      },
      "stride_h" : 1,
      "begin_mask_n" : false,
      "name" : "tf_make_list_0_ls_elem_shape",
      "stride_seq" : 1,
      "end_k" : 1,
      "top" : "tf_make_list_0_ls_elem_shape",
      "begin_seq" : 0,
      "squeeze_mask_k" : false,
      "begin_k" : 0,
      "end_mask_w" : true,
      "end_mask_seq" : false,
      "end_mask_n" : false,
      "debug_info" : "tf_make_list_0_ls_elem_shape",
      "stride_w" : 1,
      "squeeze_mask_seq" : false,
      "begin_mask_w" : false,
      "bottom" : "tf_make_list_0_full_shape",
      "end_n" : 1,
      "squeeze_mask_w" : false,
      "squeeze_mask_n" : false
    },
    {
      "bottom" : "tf_make_list_0_ls_elem_shape,tf_make_list_0_value_elem_shape",
      "alpha" : 1,
      "operation" : 107,
      "weights" : {

      },
      "fused_relu" : 0,
      "debug_info" : "tf_make_list_0_elem_shape_not_equal",
      "top" : "tf_make_list_0_elem_shape_not_equal",
      "type" : "elementwise",
      "name" : "tf_make_list_0_elem_shape_not_equal",
      "beta" : 0
    },
    {
      "axis_mode" : 31,
      "bottom" : "tf_make_list_0_elem_shape_not_equal",
      "weights" : {

      },
      "mode" : 0,
      "debug_info" : "tf_make_list_0_reduce_any",
      "use_version" : 1,
      "top" : "tf_make_list_0_reduce_any__squeeze__",
      "type" : "reduce",
      "name" : "tf_make_list_0_reduce_any"
    },
    {
      "size_of_axes" : 1,
      "bottom" : "tf_make_list_0_reduce_any__squeeze__",
      "axes_0" : 0,
      "weights" : {

      },
      "nd_axis" : 0,
      "debug_info" : "tf_make_list_0_reduce_any",
      "version" : 1,
      "top" : "tf_make_list_0_reduce_any",
      "type" : "squeeze",
      "name" : "tf_make_list_0_reduce_any",
      "squeeze_all" : true
    },
    {
      "weights" : {

      },
      "debug_info" : "tf_make_list_0_condition_re_initialize",
      "top" : "",
      "type" : "cf_if",
      "name" : "tf_make_list_0_condition_re_initialize_if",
      "bottom" : "tf_make_list_0_reduce_any"
    },
    {
      "bottom" : "tf_make_list_0_length,tf_make_list_0_value_elem_shape",
      "weights" : {

      },
      "nd_mode" : true,
      "debug_info" : "tf_make_list_0_re_initialize_shape",
      "axis" : 0,
      "top" : "tf_make_list_0_re_initialize_shape",
      "type" : "general_concat",
      "name" : "tf_make_list_0_re_initialize_shape",
      "attributes" : {
        "basic_block_head" : 1
      }
    },
    {
      "bottom" : "tf_make_list_0_re_initialize_shape",
      "weights" : {

      },
      "nd_mode" : 1,
      "debug_info" : "tf_make_list_0_re_initialize",
      "value" : 0,
      "top" : "tf_make_list_0_re_initialize",
      "type" : "fill",
      "name" : "tf_make_list_0_re_initialize"
    },
    {
      "bottom" : "tf_make_list_0_re_initialize",
      "weights" : {

      },
      "debug_info" : "tf_make_list_0_re_initialize_assign",
      "top" : "tf_make_list_0_@ssa_version_1",
      "type" : "copy",
      "name" : "tf_make_list_0_re_initialize_assign",
      "attributes" : {
        "basic_block_head" : 1
      }
    },
    {
      "bottom" : "",
      "weights" : {

      },
      "debug_info" : "",
      "top" : "",
      "type" : "cf_end",
      "name" : "tf_make_list_0_condition_re_initialize_end",
      "attributes" : {
        "basic_block_head" : 1
      }
    },
    {
      "bottom" : "range_1d_0_max,tf_make_list_0_length",
      "alpha" : 1,
      "operation" : 106,
      "beta" : 0,
      "weights" : {

      },
      "fused_relu" : 0,
      "debug_info" : "tf_make_list_0_is_growing",
      "top" : "tf_make_list_0_is_growing",
      "type" : "elementwise",
      "name" : "tf_make_list_0_is_growing",
      "attributes" : {
        "constant_if_condition" : 30,
        "basic_block_head" : 1
      }
    },
    {
      "bottom" : "tf_make_list_0_is_growing",
      "weights" : {

      },
      "debug_info" : "tf_make_list_0_condition",
      "top" : "",
      "type" : "cf_if",
      "name" : "tf_make_list_0_condition_if",
      "attributes" : {
        "constant_if_condition" : 30
      }
    },
    {
      "name" : "tf_make_list_0_extra_length0",
      "fused_relu" : 0,
      "beta" : 0,
      "operation" : 33,
      "type" : "elementwise",
      "alpha" : 1,
      "attributes" : {
        "basic_block_head" : 1
      },
      "bottom" : "range_1d_0_max,tf_make_list_0_length",
      "debug_info" : "tf_make_list_0_extra_length0",
      "nd_mode" : true,
      "weights" : {

      },
      "top" : "tf_make_list_0_extra_length0"
    },
    {
      "bottom" : "tf_make_list_0_extra_length0",
      "alpha" : 1,
      "operation" : 0,
      "weights" : {

      },
      "fused_relu" : 0,
      "debug_info" : "tf_make_list_0_extra_length1",
      "top" : "tf_make_list_0_extra_length1",
      "type" : "elementwise",
      "name" : "tf_make_list_0_extra_length1",
      "beta" : 0
    },
    {
      "bottom" : "tf_make_list_0_extra_length1,tf_make_list_0_value_elem_shape",
      "weights" : {

      },
      "nd_mode" : true,
      "axis" : 0,
      "debug_info" : "tf_make_list_0_alloc_shape",
      "top" : "tf_make_list_0_alloc_shape",
      "type" : "general_concat",
      "name" : "tf_make_list_0_alloc_shape"
    },
    {
      "bottom" : "tf_make_list_0_alloc_shape",
      "weights" : {

      },
      "nd_mode" : 1,
      "debug_info" : "tf_make_list_0_alloc",
      "value" : 0,
      "top" : "tf_make_list_0_alloc",
      "type" : "fill",
      "name" : "tf_make_list_0_alloc"
    },
    {
      "bottom" : "tf_make_list_0,tf_make_list_0_@ssa_version_1",
      "weights" : {

      },
      "debug_info" : "",
      "top" : "tf_make_list_0_@ssa_version_3",
      "type" : "phi_virtual",
      "name" : "phi_tf_make_list_0_@ssa_version_3",
      "attributes" : {
        "basic_block_head" : 1
      }
    },
    {
      "bottom" : "tf_make_list_0_@ssa_version_3,tf_make_list_0_alloc",
      "weights" : {

      },
      "nd_mode" : true,
      "axis" : 0,
      "debug_info" : "tf_make_list_0_new",
      "top" : "tf_make_list_0_new",
      "type" : "general_concat",
      "name" : "tf_make_list_0_new"
    },
    {
      "weights" : {

      },
      "debug_info" : "tf_make_list_0_assign",
      "top" : "tf_make_list_0_@ssa_version_2",
      "type" : "copy",
      "name" : "tf_make_list_0_assign",
      "bottom" : "tf_make_list_0_new"
    },
    {
      "bottom" : "",
      "weights" : {

      },
      "debug_info" : "",
      "top" : "",
      "type" : "cf_end",
      "name" : "tf_make_list_0_condition_end",
      "attributes" : {
        "basic_block_head" : 1
      }
    },
    {
      "bottom" : "tf_make_list_0,tf_make_list_0_@ssa_version_1,tf_make_list_0_@ssa_version_2,tf_make_list_0_@ssa_version_3",
      "weights" : {

      },
      "debug_info" : "",
      "top" : "tf_make_list_0_@ssa_version_4",
      "type" : "phi_virtual",
      "name" : "phi_tf_make_list_0_@ssa_version_4",
      "attributes" : {
        "basic_block_head" : 1
      }
    },
    {
      "bottom" : "tf_make_list_0_@ssa_version_4,range_1d_0,functional_1\/bidirectional\/forward_lstm\/PartitionedCall\/transpose_1",
      "weights" : {

      },
      "mode" : 0,
      "debug_info" : "functional_1\/bidirectional\/forward_lstm\/PartitionedCall\/TensorArrayUnstack_1\/TensorListFromTensor",
      "axis" : 0,
      "top" : "functional_1\/bidirectional\/forward_lstm\/PartitionedCall\/TensorArrayUnstack_1\/TensorListFromTensor",
      "type" : "scatter_nd",
      "name" : "functional_1\/bidirectional\/forward_lstm\/PartitionedCall\/TensorArrayUnstack_1\/TensorListFromTensor",
      "accumulation_mode" : 0
    },
    {
      "begin_n" : 0,
      "end_mask_h" : true,
      "end_w" : 1,
      "end_h" : 1,
      "begin_h" : 0,
      "stride_n" : 1,
      "end_seq" : 1,
      "begin_mask_seq" : false,
      "begin_mask_h" : true,
      "squeeze_mask_h" : false,
      "stride_k" : 1,
      "type" : "general_slice",
      "begin_mask_k" : true,
      "begin_w" : 0,
      "end_mask_k" : true,
      "weights" : {

      },
      "stride_h" : 1,
      "begin_mask_n" : false,
      "name" : "functional_1\/bidirectional\/backward_lstm\/PartitionedCall\/ReverseV2_1",
      "stride_seq" : 1,
      "end_k" : 1,
      "top" : "functional_1\/bidirectional\/backward_lstm\/PartitionedCall\/ReverseV2_1",
      "begin_seq" : 0,
      "squeeze_mask_k" : false,
      "begin_k" : 0,
      "end_mask_w" : true,
      "end_mask_seq" : false,
      "end_mask_n" : false,
      "debug_info" : "functional_1\/bidirectional\/backward_lstm\/PartitionedCall\/ReverseV2_1",
      "stride_w" : -1,
      "squeeze_mask_seq" : false,
      "begin_mask_w" : true,
      "bottom" : "functional_1\/bidirectional\/backward_lstm\/PartitionedCall\/transpose_1",
      "end_n" : 1,
      "squeeze_mask_w" : false,
      "squeeze_mask_n" : false
    },
    {
      "top" : "tf_make_list_1",
      "w" : 1,
      "h" : 1,
      "name" : "tf_make_list_1",
      "nd_rank" : 3,
      "type" : "load_constant",
      "k" : 82,
      "bottom" : "",
      "debug_info" : "tf_make_list_1",
      "n" : 1,
      "weights" : {

      },
      "constant_blob" : 11
    },
    {
      "top" : "range_1d_1",
      "w" : 82,
      "h" : 1,
      "name" : "range_1d_1",
      "nd_rank" : 1,
      "type" : "load_constant",
      "k" : 1,
      "bottom" : "",
      "debug_info" : "range_1d_1",
      "n" : 1,
      "weights" : {

      },
      "constant_blob" : 13
    },
    {
      "axis_mode" : 1,
      "bottom" : "range_1d_1",
      "weights" : {

      },
      "mode" : 9,
      "nd_axis" : 0,
      "nd_mode" : true,
      "debug_info" : "range_1d_1_max",
      "use_version" : 1,
      "top" : "range_1d_1_max_squeeze",
      "type" : "reduce",
      "name" : "range_1d_1_max"
    },
    {
      "size_of_axes" : 1,
      "bottom" : "range_1d_1_max_squeeze",
      "axes_0" : 0,
      "weights" : {

      },
      "nd_axis" : 0,
      "debug_info" : "range_1d_1_max",
      "version" : 1,
      "top" : "range_1d_1_max",
      "type" : "squeeze",
      "name" : "range_1d_1_max"
    },
    {
      "bottom" : "tf_make_list_1",
      "weights" : {

      },
      "nd_mode" : 1,
      "axis" : -1,
      "debug_info" : "tf_make_list_1_full_shape",
      "top" : "tf_make_list_1_full_shape",
      "type" : "get_shape",
      "name" : "tf_make_list_1_full_shape"
    },
    {
      "begin_n" : 0,
      "end_mask_h" : false,
      "end_w" : 1,
      "end_h" : 1,
      "begin_h" : 0,
      "stride_n" : 1,
      "end_seq" : 1,
      "begin_mask_seq" : false,
      "begin_mask_h" : false,
      "squeeze_mask_h" : false,
      "stride_k" : 1,
      "type" : "general_slice",
      "begin_mask_k" : false,
      "begin_w" : 0,
      "end_mask_k" : false,
      "weights" : {

      },
      "stride_h" : 1,
      "begin_mask_n" : false,
      "name" : "tf_make_list_1_length",
      "stride_seq" : 1,
      "end_k" : 1,
      "top" : "tf_make_list_1_length",
      "begin_seq" : 0,
      "squeeze_mask_k" : false,
      "begin_k" : 0,
      "end_mask_w" : false,
      "end_mask_seq" : false,
      "end_mask_n" : false,
      "debug_info" : "tf_make_list_1_length",
      "stride_w" : 1,
      "squeeze_mask_seq" : false,
      "begin_mask_w" : false,
      "bottom" : "tf_make_list_1_full_shape",
      "end_n" : 1,
      "squeeze_mask_w" : false,
      "squeeze_mask_n" : false
    },
    {
      "bottom" : "functional_1\/bidirectional_1\/forward_lstm_1\/PartitionedCall\/transpose_1",
      "weights" : {

      },
      "nd_mode" : 1,
      "axis" : -1,
      "debug_info" : "tf_make_list_1_raw_value_elem_shape",
      "top" : "tf_make_list_1_raw_value_elem_shape",
      "type" : "get_shape",
      "name" : "tf_make_list_1_raw_value_elem_shape"
    },
    {
      "begin_n" : 0,
      "end_mask_h" : false,
      "end_w" : -1,
      "end_h" : 1,
      "begin_h" : 0,
      "stride_n" : 1,
      "end_seq" : 1,
      "begin_mask_seq" : false,
      "begin_mask_h" : false,
      "squeeze_mask_h" : false,
      "stride_k" : 1,
      "type" : "general_slice",
      "begin_mask_k" : false,
      "begin_w" : 1,
      "end_mask_k" : false,
      "weights" : {

      },
      "stride_h" : 1,
      "begin_mask_n" : false,
      "name" : "tf_make_list_1_value_elem_shape",
      "stride_seq" : 1,
      "end_k" : 1,
      "top" : "tf_make_list_1_value_elem_shape",
      "begin_seq" : 0,
      "squeeze_mask_k" : false,
      "begin_k" : 0,
      "end_mask_w" : true,
      "end_mask_seq" : false,
      "end_mask_n" : false,
      "debug_info" : "tf_make_list_1_value_elem_shape",
      "stride_w" : 1,
      "squeeze_mask_seq" : false,
      "begin_mask_w" : false,
      "bottom" : "tf_make_list_1_raw_value_elem_shape",
      "end_n" : 1,
      "squeeze_mask_w" : false,
      "squeeze_mask_n" : false
    },
    {
      "begin_n" : 0,
      "end_mask_h" : false,
      "end_w" : -1,
      "end_h" : 1,
      "begin_h" : 0,
      "stride_n" : 1,
      "end_seq" : 1,
      "begin_mask_seq" : false,
      "begin_mask_h" : false,
      "squeeze_mask_h" : false,
      "stride_k" : 1,
      "type" : "general_slice",
      "begin_mask_k" : false,
      "begin_w" : 1,
      "end_mask_k" : false,
      "weights" : {

      },
      "stride_h" : 1,
      "begin_mask_n" : false,
      "name" : "tf_make_list_1_ls_elem_shape",
      "stride_seq" : 1,
      "end_k" : 1,
      "top" : "tf_make_list_1_ls_elem_shape",
      "begin_seq" : 0,
      "squeeze_mask_k" : false,
      "begin_k" : 0,
      "end_mask_w" : true,
      "end_mask_seq" : false,
      "end_mask_n" : false,
      "debug_info" : "tf_make_list_1_ls_elem_shape",
      "stride_w" : 1,
      "squeeze_mask_seq" : false,
      "begin_mask_w" : false,
      "bottom" : "tf_make_list_1_full_shape",
      "end_n" : 1,
      "squeeze_mask_w" : false,
      "squeeze_mask_n" : false
    },
    {
      "bottom" : "tf_make_list_1_ls_elem_shape,tf_make_list_1_value_elem_shape",
      "alpha" : 1,
      "operation" : 107,
      "weights" : {

      },
      "fused_relu" : 0,
      "debug_info" : "tf_make_list_1_elem_shape_not_equal",
      "top" : "tf_make_list_1_elem_shape_not_equal",
      "type" : "elementwise",
      "name" : "tf_make_list_1_elem_shape_not_equal",
      "beta" : 0
    },
    {
      "axis_mode" : 31,
      "bottom" : "tf_make_list_1_elem_shape_not_equal",
      "weights" : {

      },
      "mode" : 0,
      "debug_info" : "tf_make_list_1_reduce_any",
      "use_version" : 1,
      "top" : "tf_make_list_1_reduce_any__squeeze__",
      "type" : "reduce",
      "name" : "tf_make_list_1_reduce_any"
    },
    {
      "size_of_axes" : 1,
      "bottom" : "tf_make_list_1_reduce_any__squeeze__",
      "axes_0" : 0,
      "weights" : {

      },
      "nd_axis" : 0,
      "debug_info" : "tf_make_list_1_reduce_any",
      "version" : 1,
      "top" : "tf_make_list_1_reduce_any",
      "type" : "squeeze",
      "name" : "tf_make_list_1_reduce_any",
      "squeeze_all" : true
    },
    {
      "weights" : {

      },
      "debug_info" : "tf_make_list_1_condition_re_initialize",
      "top" : "",
      "type" : "cf_if",
      "name" : "tf_make_list_1_condition_re_initialize_if",
      "bottom" : "tf_make_list_1_reduce_any"
    },
    {
      "bottom" : "tf_make_list_1_length,tf_make_list_1_value_elem_shape",
      "weights" : {

      },
      "nd_mode" : true,
      "debug_info" : "tf_make_list_1_re_initialize_shape",
      "axis" : 0,
      "top" : "tf_make_list_1_re_initialize_shape",
      "type" : "general_concat",
      "name" : "tf_make_list_1_re_initialize_shape",
      "attributes" : {
        "basic_block_head" : 1
      }
    },
    {
      "bottom" : "tf_make_list_1_re_initialize_shape",
      "weights" : {

      },
      "nd_mode" : 1,
      "debug_info" : "tf_make_list_1_re_initialize",
      "value" : 0,
      "top" : "tf_make_list_1_re_initialize",
      "type" : "fill",
      "name" : "tf_make_list_1_re_initialize"
    },
    {
      "bottom" : "tf_make_list_1_re_initialize",
      "weights" : {

      },
      "debug_info" : "tf_make_list_1_re_initialize_assign",
      "top" : "tf_make_list_1_@ssa_version_1",
      "type" : "copy",
      "name" : "tf_make_list_1_re_initialize_assign",
      "attributes" : {
        "basic_block_head" : 1
      }
    },
    {
      "bottom" : "",
      "weights" : {

      },
      "debug_info" : "",
      "top" : "",
      "type" : "cf_end",
      "name" : "tf_make_list_1_condition_re_initialize_end",
      "attributes" : {
        "basic_block_head" : 1
      }
    },
    {
      "bottom" : "range_1d_1_max,tf_make_list_1_length",
      "alpha" : 1,
      "operation" : 106,
      "beta" : 0,
      "weights" : {

      },
      "fused_relu" : 0,
      "debug_info" : "tf_make_list_1_is_growing",
      "top" : "tf_make_list_1_is_growing",
      "type" : "elementwise",
      "name" : "tf_make_list_1_is_growing",
      "attributes" : {
        "constant_if_condition" : 30,
        "basic_block_head" : 1
      }
    },
    {
      "bottom" : "tf_make_list_1_is_growing",
      "weights" : {

      },
      "debug_info" : "tf_make_list_1_condition",
      "top" : "",
      "type" : "cf_if",
      "name" : "tf_make_list_1_condition_if",
      "attributes" : {
        "constant_if_condition" : 30
      }
    },
    {
      "name" : "tf_make_list_1_extra_length0",
      "fused_relu" : 0,
      "beta" : 0,
      "operation" : 33,
      "type" : "elementwise",
      "alpha" : 1,
      "attributes" : {
        "basic_block_head" : 1
      },
      "bottom" : "range_1d_1_max,tf_make_list_1_length",
      "debug_info" : "tf_make_list_1_extra_length0",
      "nd_mode" : true,
      "weights" : {

      },
      "top" : "tf_make_list_1_extra_length0"
    },
    {
      "bottom" : "tf_make_list_1_extra_length0",
      "alpha" : 1,
      "operation" : 0,
      "weights" : {

      },
      "fused_relu" : 0,
      "debug_info" : "tf_make_list_1_extra_length1",
      "top" : "tf_make_list_1_extra_length1",
      "type" : "elementwise",
      "name" : "tf_make_list_1_extra_length1",
      "beta" : 0
    },
    {
      "bottom" : "tf_make_list_1_extra_length1,tf_make_list_1_value_elem_shape",
      "weights" : {

      },
      "nd_mode" : true,
      "axis" : 0,
      "debug_info" : "tf_make_list_1_alloc_shape",
      "top" : "tf_make_list_1_alloc_shape",
      "type" : "general_concat",
      "name" : "tf_make_list_1_alloc_shape"
    },
    {
      "bottom" : "tf_make_list_1_alloc_shape",
      "weights" : {

      },
      "nd_mode" : 1,
      "debug_info" : "tf_make_list_1_alloc",
      "value" : 0,
      "top" : "tf_make_list_1_alloc",
      "type" : "fill",
      "name" : "tf_make_list_1_alloc"
    },
    {
      "bottom" : "tf_make_list_1,tf_make_list_1_@ssa_version_1",
      "weights" : {

      },
      "debug_info" : "",
      "top" : "tf_make_list_1_@ssa_version_3",
      "type" : "phi_virtual",
      "name" : "phi_tf_make_list_1_@ssa_version_3",
      "attributes" : {
        "basic_block_head" : 1
      }
    },
    {
      "bottom" : "tf_make_list_1_@ssa_version_3,tf_make_list_1_alloc",
      "weights" : {

      },
      "nd_mode" : true,
      "axis" : 0,
      "debug_info" : "tf_make_list_1_new",
      "top" : "tf_make_list_1_new",
      "type" : "general_concat",
      "name" : "tf_make_list_1_new"
    },
    {
      "weights" : {

      },
      "debug_info" : "tf_make_list_1_assign",
      "top" : "tf_make_list_1_@ssa_version_2",
      "type" : "copy",
      "name" : "tf_make_list_1_assign",
      "bottom" : "tf_make_list_1_new"
    },
    {
      "bottom" : "",
      "weights" : {

      },
      "debug_info" : "",
      "top" : "",
      "type" : "cf_end",
      "name" : "tf_make_list_1_condition_end",
      "attributes" : {
        "basic_block_head" : 1
      }
    },
    {
      "bottom" : "tf_make_list_1,tf_make_list_1_@ssa_version_1,tf_make_list_1_@ssa_version_2,tf_make_list_1_@ssa_version_3",
      "weights" : {

      },
      "debug_info" : "",
      "top" : "tf_make_list_1_@ssa_version_4",
      "type" : "phi_virtual",
      "name" : "phi_tf_make_list_1_@ssa_version_4",
      "attributes" : {
        "basic_block_head" : 1
      }
    },
    {
      "bottom" : "tf_make_list_1_@ssa_version_4,range_1d_1,functional_1\/bidirectional_1\/forward_lstm_1\/PartitionedCall\/transpose_1",
      "weights" : {

      },
      "mode" : 0,
      "debug_info" : "functional_1\/bidirectional_1\/forward_lstm_1\/PartitionedCall\/TensorArrayUnstack_1\/TensorListFromTensor",
      "axis" : 0,
      "top" : "functional_1\/bidirectional_1\/forward_lstm_1\/PartitionedCall\/TensorArrayUnstack_1\/TensorListFromTensor",
      "type" : "scatter_nd",
      "name" : "functional_1\/bidirectional_1\/forward_lstm_1\/PartitionedCall\/TensorArrayUnstack_1\/TensorListFromTensor",
      "accumulation_mode" : 0
    },
    {
      "begin_n" : 0,
      "end_mask_h" : true,
      "end_w" : 1,
      "end_h" : 1,
      "begin_h" : 0,
      "stride_n" : 1,
      "end_seq" : 1,
      "begin_mask_seq" : false,
      "begin_mask_h" : true,
      "squeeze_mask_h" : false,
      "stride_k" : 1,
      "type" : "general_slice",
      "begin_mask_k" : true,
      "begin_w" : 0,
      "end_mask_k" : true,
      "weights" : {

      },
      "stride_h" : 1,
      "begin_mask_n" : false,
      "name" : "functional_1\/bidirectional_1\/backward_lstm_1\/PartitionedCall\/ReverseV2_1",
      "stride_seq" : 1,
      "end_k" : 1,
      "top" : "functional_1\/bidirectional_1\/backward_lstm_1\/PartitionedCall\/ReverseV2_1",
      "begin_seq" : 0,
      "squeeze_mask_k" : false,
      "begin_k" : 0,
      "end_mask_w" : true,
      "end_mask_seq" : false,
      "end_mask_n" : false,
      "debug_info" : "functional_1\/bidirectional_1\/backward_lstm_1\/PartitionedCall\/ReverseV2_1",
      "stride_w" : -1,
      "squeeze_mask_seq" : false,
      "begin_mask_w" : true,
      "bottom" : "functional_1\/bidirectional_1\/backward_lstm_1\/PartitionedCall\/transpose_1",
      "end_n" : 1,
      "squeeze_mask_w" : false,
      "squeeze_mask_n" : false
    },
    {
      "bottom" : "functional_1\/bidirectional\/forward_lstm\/ones_like,functional_1\/embedding\/embedding_lookup",
      "alpha" : 1,
      "operation" : 1,
      "weights" : {

      },
      "fused_relu" : 0,
      "debug_info" : "functional_1\/bidirectional\/forward_lstm\/mul",
      "top" : "functional_1\/bidirectional\/forward_lstm\/mul",
      "type" : "elementwise",
      "name" : "functional_1\/bidirectional\/forward_lstm\/mul",
      "beta" : 0
    },
    {
      "top" : "functional_1\/bidirectional\/forward_lstm\/zeros\/packed\/1",
      "w" : 1,
      "h" : 1,
      "name" : "functional_1\/bidirectional\/forward_lstm\/zeros\/packed\/1",
      "nd_rank" : 1,
      "type" : "load_constant",
      "k" : 1,
      "bottom" : "",
      "debug_info" : "functional_1\/bidirectional\/forward_lstm\/zeros\/packed\/1",
      "n" : 1,
      "weights" : {

      },
      "constant_blob" : 15
    },
    {
      "bottom" : "functional_1\/bidirectional\/forward_lstm\/strided_slice,functional_1\/bidirectional\/forward_lstm\/zeros\/packed\/1",
      "weights" : {

      },
      "nd_mode" : true,
      "axis" : 0,
      "debug_info" : "functional_1\/bidirectional\/forward_lstm\/zeros\/packed",
      "top" : "functional_1\/bidirectional\/forward_lstm\/zeros\/packed",
      "type" : "general_concat",
      "name" : "functional_1\/bidirectional\/forward_lstm\/zeros\/packed"
    },
    {
      "top" : "functional_1\/bidirectional\/forward_lstm\/zeros_1\/packed\/1",
      "w" : 1,
      "h" : 1,
      "name" : "functional_1\/bidirectional\/forward_lstm\/zeros_1\/packed\/1",
      "nd_rank" : 1,
      "type" : "load_constant",
      "k" : 1,
      "bottom" : "",
      "debug_info" : "functional_1\/bidirectional\/forward_lstm\/zeros_1\/packed\/1",
      "n" : 1,
      "weights" : {

      },
      "constant_blob" : 17
    },
    {
      "bottom" : "functional_1\/bidirectional\/forward_lstm\/strided_slice,functional_1\/bidirectional\/forward_lstm\/zeros_1\/packed\/1",
      "weights" : {

      },
      "nd_mode" : true,
      "axis" : 0,
      "debug_info" : "functional_1\/bidirectional\/forward_lstm\/zeros_1\/packed",
      "top" : "functional_1\/bidirectional\/forward_lstm\/zeros_1\/packed",
      "type" : "general_concat",
      "name" : "functional_1\/bidirectional\/forward_lstm\/zeros_1\/packed"
    },
    {
      "bottom" : "functional_1\/bidirectional\/backward_lstm\/ones_like,functional_1\/embedding\/embedding_lookup",
      "alpha" : 1,
      "operation" : 1,
      "weights" : {

      },
      "fused_relu" : 0,
      "debug_info" : "functional_1\/bidirectional\/backward_lstm\/mul",
      "top" : "functional_1\/bidirectional\/backward_lstm\/mul",
      "type" : "elementwise",
      "name" : "functional_1\/bidirectional\/backward_lstm\/mul",
      "beta" : 0
    },
    {
      "top" : "functional_1\/bidirectional\/backward_lstm\/zeros\/packed\/1",
      "w" : 1,
      "h" : 1,
      "name" : "functional_1\/bidirectional\/backward_lstm\/zeros\/packed\/1",
      "nd_rank" : 1,
      "type" : "load_constant",
      "k" : 1,
      "bottom" : "",
      "debug_info" : "functional_1\/bidirectional\/backward_lstm\/zeros\/packed\/1",
      "n" : 1,
      "weights" : {

      },
      "constant_blob" : 19
    },
    {
      "bottom" : "functional_1\/bidirectional\/backward_lstm\/strided_slice,functional_1\/bidirectional\/backward_lstm\/zeros\/packed\/1",
      "weights" : {

      },
      "nd_mode" : true,
      "axis" : 0,
      "debug_info" : "functional_1\/bidirectional\/backward_lstm\/zeros\/packed",
      "top" : "functional_1\/bidirectional\/backward_lstm\/zeros\/packed",
      "type" : "general_concat",
      "name" : "functional_1\/bidirectional\/backward_lstm\/zeros\/packed"
    },
    {
      "top" : "functional_1\/bidirectional\/backward_lstm\/zeros_1\/packed\/1",
      "w" : 1,
      "h" : 1,
      "name" : "functional_1\/bidirectional\/backward_lstm\/zeros_1\/packed\/1",
      "nd_rank" : 1,
      "type" : "load_constant",
      "k" : 1,
      "bottom" : "",
      "debug_info" : "functional_1\/bidirectional\/backward_lstm\/zeros_1\/packed\/1",
      "n" : 1,
      "weights" : {

      },
      "constant_blob" : 21
    },
    {
      "bottom" : "functional_1\/bidirectional\/backward_lstm\/strided_slice,functional_1\/bidirectional\/backward_lstm\/zeros_1\/packed\/1",
      "weights" : {

      },
      "nd_mode" : true,
      "axis" : 0,
      "debug_info" : "functional_1\/bidirectional\/backward_lstm\/zeros_1\/packed",
      "top" : "functional_1\/bidirectional\/backward_lstm\/zeros_1\/packed",
      "type" : "general_concat",
      "name" : "functional_1\/bidirectional\/backward_lstm\/zeros_1\/packed"
    },
    {
      "top" : "tf_make_list_2",
      "w" : 1,
      "h" : 1,
      "name" : "tf_make_list_2",
      "nd_rank" : 3,
      "type" : "load_constant",
      "k" : 82,
      "bottom" : "",
      "debug_info" : "tf_make_list_2",
      "n" : 1,
      "weights" : {

      },
      "constant_blob" : 23
    },
    {
      "top" : "range_1d_2",
      "w" : 82,
      "h" : 1,
      "name" : "range_1d_2",
      "nd_rank" : 1,
      "type" : "load_constant",
      "k" : 1,
      "bottom" : "",
      "debug_info" : "range_1d_2",
      "n" : 1,
      "weights" : {

      },
      "constant_blob" : 25
    },
    {
      "axis_mode" : 1,
      "bottom" : "range_1d_2",
      "weights" : {

      },
      "mode" : 9,
      "nd_axis" : 0,
      "nd_mode" : true,
      "debug_info" : "range_1d_2_max",
      "use_version" : 1,
      "top" : "range_1d_2_max_squeeze",
      "type" : "reduce",
      "name" : "range_1d_2_max"
    },
    {
      "size_of_axes" : 1,
      "bottom" : "range_1d_2_max_squeeze",
      "axes_0" : 0,
      "weights" : {

      },
      "nd_axis" : 0,
      "debug_info" : "range_1d_2_max",
      "version" : 1,
      "top" : "range_1d_2_max",
      "type" : "squeeze",
      "name" : "range_1d_2_max"
    },
    {
      "bottom" : "tf_make_list_2",
      "weights" : {

      },
      "nd_mode" : 1,
      "axis" : -1,
      "debug_info" : "tf_make_list_2_full_shape",
      "top" : "tf_make_list_2_full_shape",
      "type" : "get_shape",
      "name" : "tf_make_list_2_full_shape"
    },
    {
      "begin_n" : 0,
      "end_mask_h" : false,
      "end_w" : 1,
      "end_h" : 1,
      "begin_h" : 0,
      "stride_n" : 1,
      "end_seq" : 1,
      "begin_mask_seq" : false,
      "begin_mask_h" : false,
      "squeeze_mask_h" : false,
      "stride_k" : 1,
      "type" : "general_slice",
      "begin_mask_k" : false,
      "begin_w" : 0,
      "end_mask_k" : false,
      "weights" : {

      },
      "stride_h" : 1,
      "begin_mask_n" : false,
      "name" : "tf_make_list_2_length",
      "stride_seq" : 1,
      "end_k" : 1,
      "top" : "tf_make_list_2_length",
      "begin_seq" : 0,
      "squeeze_mask_k" : false,
      "begin_k" : 0,
      "end_mask_w" : false,
      "end_mask_seq" : false,
      "end_mask_n" : false,
      "debug_info" : "tf_make_list_2_length",
      "stride_w" : 1,
      "squeeze_mask_seq" : false,
      "begin_mask_w" : false,
      "bottom" : "tf_make_list_2_full_shape",
      "end_n" : 1,
      "squeeze_mask_w" : false,
      "squeeze_mask_n" : false
    },
    {
      "bottom" : "functional_1\/bidirectional\/backward_lstm\/PartitionedCall\/ReverseV2_1",
      "weights" : {

      },
      "nd_mode" : 1,
      "axis" : -1,
      "debug_info" : "tf_make_list_2_raw_value_elem_shape",
      "top" : "tf_make_list_2_raw_value_elem_shape",
      "type" : "get_shape",
      "name" : "tf_make_list_2_raw_value_elem_shape"
    },
    {
      "begin_n" : 0,
      "end_mask_h" : false,
      "end_w" : -1,
      "end_h" : 1,
      "begin_h" : 0,
      "stride_n" : 1,
      "end_seq" : 1,
      "begin_mask_seq" : false,
      "begin_mask_h" : false,
      "squeeze_mask_h" : false,
      "stride_k" : 1,
      "type" : "general_slice",
      "begin_mask_k" : false,
      "begin_w" : 1,
      "end_mask_k" : false,
      "weights" : {

      },
      "stride_h" : 1,
      "begin_mask_n" : false,
      "name" : "tf_make_list_2_value_elem_shape",
      "stride_seq" : 1,
      "end_k" : 1,
      "top" : "tf_make_list_2_value_elem_shape",
      "begin_seq" : 0,
      "squeeze_mask_k" : false,
      "begin_k" : 0,
      "end_mask_w" : true,
      "end_mask_seq" : false,
      "end_mask_n" : false,
      "debug_info" : "tf_make_list_2_value_elem_shape",
      "stride_w" : 1,
      "squeeze_mask_seq" : false,
      "begin_mask_w" : false,
      "bottom" : "tf_make_list_2_raw_value_elem_shape",
      "end_n" : 1,
      "squeeze_mask_w" : false,
      "squeeze_mask_n" : false
    },
    {
      "begin_n" : 0,
      "end_mask_h" : false,
      "end_w" : -1,
      "end_h" : 1,
      "begin_h" : 0,
      "stride_n" : 1,
      "end_seq" : 1,
      "begin_mask_seq" : false,
      "begin_mask_h" : false,
      "squeeze_mask_h" : false,
      "stride_k" : 1,
      "type" : "general_slice",
      "begin_mask_k" : false,
      "begin_w" : 1,
      "end_mask_k" : false,
      "weights" : {

      },
      "stride_h" : 1,
      "begin_mask_n" : false,
      "name" : "tf_make_list_2_ls_elem_shape",
      "stride_seq" : 1,
      "end_k" : 1,
      "top" : "tf_make_list_2_ls_elem_shape",
      "begin_seq" : 0,
      "squeeze_mask_k" : false,
      "begin_k" : 0,
      "end_mask_w" : true,
      "end_mask_seq" : false,
      "end_mask_n" : false,
      "debug_info" : "tf_make_list_2_ls_elem_shape",
      "stride_w" : 1,
      "squeeze_mask_seq" : false,
      "begin_mask_w" : false,
      "bottom" : "tf_make_list_2_full_shape",
      "end_n" : 1,
      "squeeze_mask_w" : false,
      "squeeze_mask_n" : false
    },
    {
      "bottom" : "tf_make_list_2_ls_elem_shape,tf_make_list_2_value_elem_shape",
      "alpha" : 1,
      "operation" : 107,
      "weights" : {

      },
      "fused_relu" : 0,
      "debug_info" : "tf_make_list_2_elem_shape_not_equal",
      "top" : "tf_make_list_2_elem_shape_not_equal",
      "type" : "elementwise",
      "name" : "tf_make_list_2_elem_shape_not_equal",
      "beta" : 0
    },
    {
      "axis_mode" : 31,
      "bottom" : "tf_make_list_2_elem_shape_not_equal",
      "weights" : {

      },
      "mode" : 0,
      "debug_info" : "tf_make_list_2_reduce_any",
      "use_version" : 1,
      "top" : "tf_make_list_2_reduce_any__squeeze__",
      "type" : "reduce",
      "name" : "tf_make_list_2_reduce_any"
    },
    {
      "size_of_axes" : 1,
      "bottom" : "tf_make_list_2_reduce_any__squeeze__",
      "axes_0" : 0,
      "weights" : {

      },
      "nd_axis" : 0,
      "debug_info" : "tf_make_list_2_reduce_any",
      "version" : 1,
      "top" : "tf_make_list_2_reduce_any",
      "type" : "squeeze",
      "name" : "tf_make_list_2_reduce_any",
      "squeeze_all" : true
    },
    {
      "weights" : {

      },
      "debug_info" : "tf_make_list_2_condition_re_initialize",
      "top" : "",
      "type" : "cf_if",
      "name" : "tf_make_list_2_condition_re_initialize_if",
      "bottom" : "tf_make_list_2_reduce_any"
    },
    {
      "bottom" : "tf_make_list_2_length,tf_make_list_2_value_elem_shape",
      "weights" : {

      },
      "nd_mode" : true,
      "debug_info" : "tf_make_list_2_re_initialize_shape",
      "axis" : 0,
      "top" : "tf_make_list_2_re_initialize_shape",
      "type" : "general_concat",
      "name" : "tf_make_list_2_re_initialize_shape",
      "attributes" : {
        "basic_block_head" : 1
      }
    },
    {
      "bottom" : "tf_make_list_2_re_initialize_shape",
      "weights" : {

      },
      "nd_mode" : 1,
      "debug_info" : "tf_make_list_2_re_initialize",
      "value" : 0,
      "top" : "tf_make_list_2_re_initialize",
      "type" : "fill",
      "name" : "tf_make_list_2_re_initialize"
    },
    {
      "bottom" : "tf_make_list_2_re_initialize",
      "weights" : {

      },
      "debug_info" : "tf_make_list_2_re_initialize_assign",
      "top" : "tf_make_list_2_@ssa_version_1",
      "type" : "copy",
      "name" : "tf_make_list_2_re_initialize_assign",
      "attributes" : {
        "basic_block_head" : 1
      }
    },
    {
      "bottom" : "",
      "weights" : {

      },
      "debug_info" : "",
      "top" : "",
      "type" : "cf_end",
      "name" : "tf_make_list_2_condition_re_initialize_end",
      "attributes" : {
        "basic_block_head" : 1
      }
    },
    {
      "bottom" : "range_1d_2_max,tf_make_list_2_length",
      "alpha" : 1,
      "operation" : 106,
      "beta" : 0,
      "weights" : {

      },
      "fused_relu" : 0,
      "debug_info" : "tf_make_list_2_is_growing",
      "top" : "tf_make_list_2_is_growing",
      "type" : "elementwise",
      "name" : "tf_make_list_2_is_growing",
      "attributes" : {
        "constant_if_condition" : 30,
        "basic_block_head" : 1
      }
    },
    {
      "bottom" : "tf_make_list_2_is_growing",
      "weights" : {

      },
      "debug_info" : "tf_make_list_2_condition",
      "top" : "",
      "type" : "cf_if",
      "name" : "tf_make_list_2_condition_if",
      "attributes" : {
        "constant_if_condition" : 30
      }
    },
    {
      "name" : "tf_make_list_2_extra_length0",
      "fused_relu" : 0,
      "beta" : 0,
      "operation" : 33,
      "type" : "elementwise",
      "alpha" : 1,
      "attributes" : {
        "basic_block_head" : 1
      },
      "bottom" : "range_1d_2_max,tf_make_list_2_length",
      "debug_info" : "tf_make_list_2_extra_length0",
      "nd_mode" : true,
      "weights" : {

      },
      "top" : "tf_make_list_2_extra_length0"
    },
    {
      "bottom" : "tf_make_list_2_extra_length0",
      "alpha" : 1,
      "operation" : 0,
      "weights" : {

      },
      "fused_relu" : 0,
      "debug_info" : "tf_make_list_2_extra_length1",
      "top" : "tf_make_list_2_extra_length1",
      "type" : "elementwise",
      "name" : "tf_make_list_2_extra_length1",
      "beta" : 0
    },
    {
      "bottom" : "tf_make_list_2_extra_length1,tf_make_list_2_value_elem_shape",
      "weights" : {

      },
      "nd_mode" : true,
      "axis" : 0,
      "debug_info" : "tf_make_list_2_alloc_shape",
      "top" : "tf_make_list_2_alloc_shape",
      "type" : "general_concat",
      "name" : "tf_make_list_2_alloc_shape"
    },
    {
      "bottom" : "tf_make_list_2_alloc_shape",
      "weights" : {

      },
      "nd_mode" : 1,
      "debug_info" : "tf_make_list_2_alloc",
      "value" : 0,
      "top" : "tf_make_list_2_alloc",
      "type" : "fill",
      "name" : "tf_make_list_2_alloc"
    },
    {
      "bottom" : "tf_make_list_2,tf_make_list_2_@ssa_version_1",
      "weights" : {

      },
      "debug_info" : "",
      "top" : "tf_make_list_2_@ssa_version_3",
      "type" : "phi_virtual",
      "name" : "phi_tf_make_list_2_@ssa_version_3",
      "attributes" : {
        "basic_block_head" : 1
      }
    },
    {
      "bottom" : "tf_make_list_2_@ssa_version_3,tf_make_list_2_alloc",
      "weights" : {

      },
      "nd_mode" : true,
      "axis" : 0,
      "debug_info" : "tf_make_list_2_new",
      "top" : "tf_make_list_2_new",
      "type" : "general_concat",
      "name" : "tf_make_list_2_new"
    },
    {
      "weights" : {

      },
      "debug_info" : "tf_make_list_2_assign",
      "top" : "tf_make_list_2_@ssa_version_2",
      "type" : "copy",
      "name" : "tf_make_list_2_assign",
      "bottom" : "tf_make_list_2_new"
    },
    {
      "bottom" : "",
      "weights" : {

      },
      "debug_info" : "",
      "top" : "",
      "type" : "cf_end",
      "name" : "tf_make_list_2_condition_end",
      "attributes" : {
        "basic_block_head" : 1
      }
    },
    {
      "bottom" : "tf_make_list_2,tf_make_list_2_@ssa_version_1,tf_make_list_2_@ssa_version_2,tf_make_list_2_@ssa_version_3",
      "weights" : {

      },
      "debug_info" : "",
      "top" : "tf_make_list_2_@ssa_version_4",
      "type" : "phi_virtual",
      "name" : "phi_tf_make_list_2_@ssa_version_4",
      "attributes" : {
        "basic_block_head" : 1
      }
    },
    {
      "bottom" : "tf_make_list_2_@ssa_version_4,range_1d_2,functional_1\/bidirectional\/backward_lstm\/PartitionedCall\/ReverseV2_1",
      "weights" : {

      },
      "mode" : 0,
      "debug_info" : "functional_1\/bidirectional\/backward_lstm\/PartitionedCall\/TensorArrayUnstack_1\/TensorListFromTensor",
      "axis" : 0,
      "top" : "functional_1\/bidirectional\/backward_lstm\/PartitionedCall\/TensorArrayUnstack_1\/TensorListFromTensor",
      "type" : "scatter_nd",
      "name" : "functional_1\/bidirectional\/backward_lstm\/PartitionedCall\/TensorArrayUnstack_1\/TensorListFromTensor",
      "accumulation_mode" : 0
    },
    {
      "top" : "tf_make_list_3",
      "w" : 1,
      "h" : 1,
      "name" : "tf_make_list_3",
      "nd_rank" : 3,
      "type" : "load_constant",
      "k" : 82,
      "bottom" : "",
      "debug_info" : "tf_make_list_3",
      "n" : 1,
      "weights" : {

      },
      "constant_blob" : 27
    },
    {
      "top" : "range_1d_3",
      "w" : 82,
      "h" : 1,
      "name" : "range_1d_3",
      "nd_rank" : 1,
      "type" : "load_constant",
      "k" : 1,
      "bottom" : "",
      "debug_info" : "range_1d_3",
      "n" : 1,
      "weights" : {

      },
      "constant_blob" : 29
    },
    {
      "axis_mode" : 1,
      "bottom" : "range_1d_3",
      "weights" : {

      },
      "mode" : 9,
      "nd_axis" : 0,
      "nd_mode" : true,
      "debug_info" : "range_1d_3_max",
      "use_version" : 1,
      "top" : "range_1d_3_max_squeeze",
      "type" : "reduce",
      "name" : "range_1d_3_max"
    },
    {
      "size_of_axes" : 1,
      "bottom" : "range_1d_3_max_squeeze",
      "axes_0" : 0,
      "weights" : {

      },
      "nd_axis" : 0,
      "debug_info" : "range_1d_3_max",
      "version" : 1,
      "top" : "range_1d_3_max",
      "type" : "squeeze",
      "name" : "range_1d_3_max"
    },
    {
      "bottom" : "tf_make_list_3",
      "weights" : {

      },
      "nd_mode" : 1,
      "axis" : -1,
      "debug_info" : "tf_make_list_3_full_shape",
      "top" : "tf_make_list_3_full_shape",
      "type" : "get_shape",
      "name" : "tf_make_list_3_full_shape"
    },
    {
      "begin_n" : 0,
      "end_mask_h" : false,
      "end_w" : 1,
      "end_h" : 1,
      "begin_h" : 0,
      "stride_n" : 1,
      "end_seq" : 1,
      "begin_mask_seq" : false,
      "begin_mask_h" : false,
      "squeeze_mask_h" : false,
      "stride_k" : 1,
      "type" : "general_slice",
      "begin_mask_k" : false,
      "begin_w" : 0,
      "end_mask_k" : false,
      "weights" : {

      },
      "stride_h" : 1,
      "begin_mask_n" : false,
      "name" : "tf_make_list_3_length",
      "stride_seq" : 1,
      "end_k" : 1,
      "top" : "tf_make_list_3_length",
      "begin_seq" : 0,
      "squeeze_mask_k" : false,
      "begin_k" : 0,
      "end_mask_w" : false,
      "end_mask_seq" : false,
      "end_mask_n" : false,
      "debug_info" : "tf_make_list_3_length",
      "stride_w" : 1,
      "squeeze_mask_seq" : false,
      "begin_mask_w" : false,
      "bottom" : "tf_make_list_3_full_shape",
      "end_n" : 1,
      "squeeze_mask_w" : false,
      "squeeze_mask_n" : false
    },
    {
      "bottom" : "functional_1\/bidirectional_1\/backward_lstm_1\/PartitionedCall\/ReverseV2_1",
      "weights" : {

      },
      "nd_mode" : 1,
      "axis" : -1,
      "debug_info" : "tf_make_list_3_raw_value_elem_shape",
      "top" : "tf_make_list_3_raw_value_elem_shape",
      "type" : "get_shape",
      "name" : "tf_make_list_3_raw_value_elem_shape"
    },
    {
      "begin_n" : 0,
      "end_mask_h" : false,
      "end_w" : -1,
      "end_h" : 1,
      "begin_h" : 0,
      "stride_n" : 1,
      "end_seq" : 1,
      "begin_mask_seq" : false,
      "begin_mask_h" : false,
      "squeeze_mask_h" : false,
      "stride_k" : 1,
      "type" : "general_slice",
      "begin_mask_k" : false,
      "begin_w" : 1,
      "end_mask_k" : false,
      "weights" : {

      },
      "stride_h" : 1,
      "begin_mask_n" : false,
      "name" : "tf_make_list_3_value_elem_shape",
      "stride_seq" : 1,
      "end_k" : 1,
      "top" : "tf_make_list_3_value_elem_shape",
      "begin_seq" : 0,
      "squeeze_mask_k" : false,
      "begin_k" : 0,
      "end_mask_w" : true,
      "end_mask_seq" : false,
      "end_mask_n" : false,
      "debug_info" : "tf_make_list_3_value_elem_shape",
      "stride_w" : 1,
      "squeeze_mask_seq" : false,
      "begin_mask_w" : false,
      "bottom" : "tf_make_list_3_raw_value_elem_shape",
      "end_n" : 1,
      "squeeze_mask_w" : false,
      "squeeze_mask_n" : false
    },
    {
      "begin_n" : 0,
      "end_mask_h" : false,
      "end_w" : -1,
      "end_h" : 1,
      "begin_h" : 0,
      "stride_n" : 1,
      "end_seq" : 1,
      "begin_mask_seq" : false,
      "begin_mask_h" : false,
      "squeeze_mask_h" : false,
      "stride_k" : 1,
      "type" : "general_slice",
      "begin_mask_k" : false,
      "begin_w" : 1,
      "end_mask_k" : false,
      "weights" : {

      },
      "stride_h" : 1,
      "begin_mask_n" : false,
      "name" : "tf_make_list_3_ls_elem_shape",
      "stride_seq" : 1,
      "end_k" : 1,
      "top" : "tf_make_list_3_ls_elem_shape",
      "begin_seq" : 0,
      "squeeze_mask_k" : false,
      "begin_k" : 0,
      "end_mask_w" : true,
      "end_mask_seq" : false,
      "end_mask_n" : false,
      "debug_info" : "tf_make_list_3_ls_elem_shape",
      "stride_w" : 1,
      "squeeze_mask_seq" : false,
      "begin_mask_w" : false,
      "bottom" : "tf_make_list_3_full_shape",
      "end_n" : 1,
      "squeeze_mask_w" : false,
      "squeeze_mask_n" : false
    },
    {
      "bottom" : "tf_make_list_3_ls_elem_shape,tf_make_list_3_value_elem_shape",
      "alpha" : 1,
      "operation" : 107,
      "weights" : {

      },
      "fused_relu" : 0,
      "debug_info" : "tf_make_list_3_elem_shape_not_equal",
      "top" : "tf_make_list_3_elem_shape_not_equal",
      "type" : "elementwise",
      "name" : "tf_make_list_3_elem_shape_not_equal",
      "beta" : 0
    },
    {
      "axis_mode" : 31,
      "bottom" : "tf_make_list_3_elem_shape_not_equal",
      "weights" : {

      },
      "mode" : 0,
      "debug_info" : "tf_make_list_3_reduce_any",
      "use_version" : 1,
      "top" : "tf_make_list_3_reduce_any__squeeze__",
      "type" : "reduce",
      "name" : "tf_make_list_3_reduce_any"
    },
    {
      "size_of_axes" : 1,
      "bottom" : "tf_make_list_3_reduce_any__squeeze__",
      "axes_0" : 0,
      "weights" : {

      },
      "nd_axis" : 0,
      "debug_info" : "tf_make_list_3_reduce_any",
      "version" : 1,
      "top" : "tf_make_list_3_reduce_any",
      "type" : "squeeze",
      "name" : "tf_make_list_3_reduce_any",
      "squeeze_all" : true
    },
    {
      "weights" : {

      },
      "debug_info" : "tf_make_list_3_condition_re_initialize",
      "top" : "",
      "type" : "cf_if",
      "name" : "tf_make_list_3_condition_re_initialize_if",
      "bottom" : "tf_make_list_3_reduce_any"
    },
    {
      "bottom" : "tf_make_list_3_length,tf_make_list_3_value_elem_shape",
      "weights" : {

      },
      "nd_mode" : true,
      "debug_info" : "tf_make_list_3_re_initialize_shape",
      "axis" : 0,
      "top" : "tf_make_list_3_re_initialize_shape",
      "type" : "general_concat",
      "name" : "tf_make_list_3_re_initialize_shape",
      "attributes" : {
        "basic_block_head" : 1
      }
    },
    {
      "bottom" : "tf_make_list_3_re_initialize_shape",
      "weights" : {

      },
      "nd_mode" : 1,
      "debug_info" : "tf_make_list_3_re_initialize",
      "value" : 0,
      "top" : "tf_make_list_3_re_initialize",
      "type" : "fill",
      "name" : "tf_make_list_3_re_initialize"
    },
    {
      "bottom" : "tf_make_list_3_re_initialize",
      "weights" : {

      },
      "debug_info" : "tf_make_list_3_re_initialize_assign",
      "top" : "tf_make_list_3_@ssa_version_1",
      "type" : "copy",
      "name" : "tf_make_list_3_re_initialize_assign",
      "attributes" : {
        "basic_block_head" : 1
      }
    },
    {
      "bottom" : "",
      "weights" : {

      },
      "debug_info" : "",
      "top" : "",
      "type" : "cf_end",
      "name" : "tf_make_list_3_condition_re_initialize_end",
      "attributes" : {
        "basic_block_head" : 1
      }
    },
    {
      "bottom" : "range_1d_3_max,tf_make_list_3_length",
      "alpha" : 1,
      "operation" : 106,
      "beta" : 0,
      "weights" : {

      },
      "fused_relu" : 0,
      "debug_info" : "tf_make_list_3_is_growing",
      "top" : "tf_make_list_3_is_growing",
      "type" : "elementwise",
      "name" : "tf_make_list_3_is_growing",
      "attributes" : {
        "constant_if_condition" : 30,
        "basic_block_head" : 1
      }
    },
    {
      "bottom" : "tf_make_list_3_is_growing",
      "weights" : {

      },
      "debug_info" : "tf_make_list_3_condition",
      "top" : "",
      "type" : "cf_if",
      "name" : "tf_make_list_3_condition_if",
      "attributes" : {
        "constant_if_condition" : 30
      }
    },
    {
      "name" : "tf_make_list_3_extra_length0",
      "fused_relu" : 0,
      "beta" : 0,
      "operation" : 33,
      "type" : "elementwise",
      "alpha" : 1,
      "attributes" : {
        "basic_block_head" : 1
      },
      "bottom" : "range_1d_3_max,tf_make_list_3_length",
      "debug_info" : "tf_make_list_3_extra_length0",
      "nd_mode" : true,
      "weights" : {

      },
      "top" : "tf_make_list_3_extra_length0"
    },
    {
      "bottom" : "tf_make_list_3_extra_length0",
      "alpha" : 1,
      "operation" : 0,
      "weights" : {

      },
      "fused_relu" : 0,
      "debug_info" : "tf_make_list_3_extra_length1",
      "top" : "tf_make_list_3_extra_length1",
      "type" : "elementwise",
      "name" : "tf_make_list_3_extra_length1",
      "beta" : 0
    },
    {
      "bottom" : "tf_make_list_3_extra_length1,tf_make_list_3_value_elem_shape",
      "weights" : {

      },
      "nd_mode" : true,
      "axis" : 0,
      "debug_info" : "tf_make_list_3_alloc_shape",
      "top" : "tf_make_list_3_alloc_shape",
      "type" : "general_concat",
      "name" : "tf_make_list_3_alloc_shape"
    },
    {
      "bottom" : "tf_make_list_3_alloc_shape",
      "weights" : {

      },
      "nd_mode" : 1,
      "debug_info" : "tf_make_list_3_alloc",
      "value" : 0,
      "top" : "tf_make_list_3_alloc",
      "type" : "fill",
      "name" : "tf_make_list_3_alloc"
    },
    {
      "bottom" : "tf_make_list_3,tf_make_list_3_@ssa_version_1",
      "weights" : {

      },
      "debug_info" : "",
      "top" : "tf_make_list_3_@ssa_version_3",
      "type" : "phi_virtual",
      "name" : "phi_tf_make_list_3_@ssa_version_3",
      "attributes" : {
        "basic_block_head" : 1
      }
    },
    {
      "bottom" : "tf_make_list_3_@ssa_version_3,tf_make_list_3_alloc",
      "weights" : {

      },
      "nd_mode" : true,
      "axis" : 0,
      "debug_info" : "tf_make_list_3_new",
      "top" : "tf_make_list_3_new",
      "type" : "general_concat",
      "name" : "tf_make_list_3_new"
    },
    {
      "weights" : {

      },
      "debug_info" : "tf_make_list_3_assign",
      "top" : "tf_make_list_3_@ssa_version_2",
      "type" : "copy",
      "name" : "tf_make_list_3_assign",
      "bottom" : "tf_make_list_3_new"
    },
    {
      "bottom" : "",
      "weights" : {

      },
      "debug_info" : "",
      "top" : "",
      "type" : "cf_end",
      "name" : "tf_make_list_3_condition_end",
      "attributes" : {
        "basic_block_head" : 1
      }
    },
    {
      "bottom" : "tf_make_list_3,tf_make_list_3_@ssa_version_1,tf_make_list_3_@ssa_version_2,tf_make_list_3_@ssa_version_3",
      "weights" : {

      },
      "debug_info" : "",
      "top" : "tf_make_list_3_@ssa_version_4",
      "type" : "phi_virtual",
      "name" : "phi_tf_make_list_3_@ssa_version_4",
      "attributes" : {
        "basic_block_head" : 1
      }
    },
    {
      "bottom" : "tf_make_list_3_@ssa_version_4,range_1d_3,functional_1\/bidirectional_1\/backward_lstm_1\/PartitionedCall\/ReverseV2_1",
      "weights" : {

      },
      "mode" : 0,
      "debug_info" : "functional_1\/bidirectional_1\/backward_lstm_1\/PartitionedCall\/TensorArrayUnstack_1\/TensorListFromTensor",
      "axis" : 0,
      "top" : "functional_1\/bidirectional_1\/backward_lstm_1\/PartitionedCall\/TensorArrayUnstack_1\/TensorListFromTensor",
      "type" : "scatter_nd",
      "name" : "functional_1\/bidirectional_1\/backward_lstm_1\/PartitionedCall\/TensorArrayUnstack_1\/TensorListFromTensor",
      "accumulation_mode" : 0
    },
    {
      "axis_h" : 2,
      "axis_w" : 0,
      "bottom" : "functional_1\/bidirectional\/forward_lstm\/mul",
      "axis_k" : 1,
      "axis_n" : 3,
      "axis_seq" : 4,
      "weights" : {

      },
      "debug_info" : "functional_1\/bidirectional\/forward_lstm\/PartitionedCall\/transpose",
      "top" : "functional_1\/bidirectional\/forward_lstm\/PartitionedCall\/transpose",
      "type" : "transpose",
      "name" : "functional_1\/bidirectional\/forward_lstm\/PartitionedCall\/transpose"
    },
    {
      "bottom" : "functional_1\/bidirectional\/forward_lstm\/zeros\/packed",
      "weights" : {

      },
      "nd_mode" : 1,
      "debug_info" : "functional_1\/bidirectional\/forward_lstm\/zeros",
      "value" : 0,
      "top" : "functional_1\/bidirectional\/forward_lstm\/zeros",
      "type" : "fill",
      "name" : "functional_1\/bidirectional\/forward_lstm\/zeros"
    },
    {
      "bottom" : "functional_1\/bidirectional\/forward_lstm\/zeros_1\/packed",
      "weights" : {

      },
      "nd_mode" : 1,
      "debug_info" : "functional_1\/bidirectional\/forward_lstm\/zeros_1",
      "value" : 0,
      "top" : "functional_1\/bidirectional\/forward_lstm\/zeros_1",
      "type" : "fill",
      "name" : "functional_1\/bidirectional\/forward_lstm\/zeros_1",
      "attributes" : {
        "basic_block_head" : 1
      }
    },
    {
      "axis_seq" : 4,
      "name" : "functional_1\/bidirectional\/backward_lstm\/PartitionedCall\/transpose",
      "axis_n" : 3,
      "axis_h" : 2,
      "type" : "transpose",
      "attributes" : {
        "basic_block_head" : 1
      },
      "bottom" : "functional_1\/bidirectional\/backward_lstm\/mul",
      "axis_w" : 0,
      "axis_k" : 1,
      "debug_info" : "functional_1\/bidirectional\/backward_lstm\/PartitionedCall\/transpose",
      "weights" : {

      },
      "top" : "functional_1\/bidirectional\/backward_lstm\/PartitionedCall\/transpose"
    },
    {
      "bottom" : "functional_1\/bidirectional\/backward_lstm\/zeros\/packed",
      "weights" : {

      },
      "nd_mode" : 1,
      "debug_info" : "functional_1\/bidirectional\/backward_lstm\/zeros",
      "value" : 0,
      "top" : "functional_1\/bidirectional\/backward_lstm\/zeros",
      "type" : "fill",
      "name" : "functional_1\/bidirectional\/backward_lstm\/zeros"
    },
    {
      "bottom" : "functional_1\/bidirectional\/backward_lstm\/zeros_1\/packed",
      "weights" : {

      },
      "nd_mode" : 1,
      "debug_info" : "functional_1\/bidirectional\/backward_lstm\/zeros_1",
      "value" : 0,
      "top" : "functional_1\/bidirectional\/backward_lstm\/zeros_1",
      "type" : "fill",
      "name" : "functional_1\/bidirectional\/backward_lstm\/zeros_1",
      "attributes" : {
        "basic_block_head" : 1
      }
    },
    {
      "top" : "tf_make_list_4",
      "w" : 10,
      "h" : 1,
      "weights" : {

      },
      "nd_rank" : 3,
      "type" : "load_constant",
      "k" : 82,
      "attributes" : {
        "basic_block_head" : 1
      },
      "bottom" : "",
      "debug_info" : "tf_make_list_4",
      "n" : 1,
      "name" : "tf_make_list_4",
      "constant_blob" : 31
    },
    {
      "top" : "range_1d_4",
      "w" : 82,
      "h" : 1,
      "name" : "range_1d_4",
      "nd_rank" : 1,
      "type" : "load_constant",
      "k" : 1,
      "bottom" : "",
      "debug_info" : "range_1d_4",
      "n" : 1,
      "weights" : {

      },
      "constant_blob" : 33
    },
    {
      "axis_mode" : 1,
      "bottom" : "range_1d_4",
      "weights" : {

      },
      "mode" : 9,
      "nd_axis" : 0,
      "nd_mode" : true,
      "debug_info" : "range_1d_4_max",
      "use_version" : 1,
      "top" : "range_1d_4_max_squeeze",
      "type" : "reduce",
      "name" : "range_1d_4_max"
    },
    {
      "size_of_axes" : 1,
      "bottom" : "range_1d_4_max_squeeze",
      "axes_0" : 0,
      "weights" : {

      },
      "nd_axis" : 0,
      "debug_info" : "range_1d_4_max",
      "version" : 1,
      "top" : "range_1d_4_max",
      "type" : "squeeze",
      "name" : "range_1d_4_max"
    },
    {
      "bottom" : "tf_make_list_4",
      "weights" : {

      },
      "nd_mode" : 1,
      "axis" : -1,
      "debug_info" : "tf_make_list_4_full_shape",
      "top" : "tf_make_list_4_full_shape",
      "type" : "get_shape",
      "name" : "tf_make_list_4_full_shape"
    },
    {
      "begin_n" : 0,
      "end_mask_h" : false,
      "end_w" : 1,
      "end_h" : 1,
      "begin_h" : 0,
      "stride_n" : 1,
      "end_seq" : 1,
      "begin_mask_seq" : false,
      "begin_mask_h" : false,
      "squeeze_mask_h" : false,
      "stride_k" : 1,
      "type" : "general_slice",
      "begin_mask_k" : false,
      "begin_w" : 0,
      "end_mask_k" : false,
      "weights" : {

      },
      "stride_h" : 1,
      "begin_mask_n" : false,
      "name" : "tf_make_list_4_length",
      "stride_seq" : 1,
      "end_k" : 1,
      "top" : "tf_make_list_4_length",
      "begin_seq" : 0,
      "squeeze_mask_k" : false,
      "begin_k" : 0,
      "end_mask_w" : false,
      "end_mask_seq" : false,
      "end_mask_n" : false,
      "debug_info" : "tf_make_list_4_length",
      "stride_w" : 1,
      "squeeze_mask_seq" : false,
      "begin_mask_w" : false,
      "bottom" : "tf_make_list_4_full_shape",
      "end_n" : 1,
      "squeeze_mask_w" : false,
      "squeeze_mask_n" : false
    },
    {
      "bottom" : "functional_1\/bidirectional\/forward_lstm\/PartitionedCall\/transpose",
      "weights" : {

      },
      "nd_mode" : 1,
      "axis" : -1,
      "debug_info" : "tf_make_list_4_raw_value_elem_shape",
      "top" : "tf_make_list_4_raw_value_elem_shape",
      "type" : "get_shape",
      "name" : "tf_make_list_4_raw_value_elem_shape"
    },
    {
      "begin_n" : 0,
      "end_mask_h" : false,
      "end_w" : -1,
      "end_h" : 1,
      "begin_h" : 0,
      "stride_n" : 1,
      "end_seq" : 1,
      "begin_mask_seq" : false,
      "begin_mask_h" : false,
      "squeeze_mask_h" : false,
      "stride_k" : 1,
      "type" : "general_slice",
      "begin_mask_k" : false,
      "begin_w" : 1,
      "end_mask_k" : false,
      "weights" : {

      },
      "stride_h" : 1,
      "begin_mask_n" : false,
      "name" : "tf_make_list_4_value_elem_shape",
      "stride_seq" : 1,
      "end_k" : 1,
      "top" : "tf_make_list_4_value_elem_shape",
      "begin_seq" : 0,
      "squeeze_mask_k" : false,
      "begin_k" : 0,
      "end_mask_w" : true,
      "end_mask_seq" : false,
      "end_mask_n" : false,
      "debug_info" : "tf_make_list_4_value_elem_shape",
      "stride_w" : 1,
      "squeeze_mask_seq" : false,
      "begin_mask_w" : false,
      "bottom" : "tf_make_list_4_raw_value_elem_shape",
      "end_n" : 1,
      "squeeze_mask_w" : false,
      "squeeze_mask_n" : false
    },
    {
      "begin_n" : 0,
      "end_mask_h" : false,
      "end_w" : -1,
      "end_h" : 1,
      "begin_h" : 0,
      "stride_n" : 1,
      "end_seq" : 1,
      "begin_mask_seq" : false,
      "begin_mask_h" : false,
      "squeeze_mask_h" : false,
      "stride_k" : 1,
      "type" : "general_slice",
      "begin_mask_k" : false,
      "begin_w" : 1,
      "end_mask_k" : false,
      "weights" : {

      },
      "stride_h" : 1,
      "begin_mask_n" : false,
      "name" : "tf_make_list_4_ls_elem_shape",
      "stride_seq" : 1,
      "end_k" : 1,
      "top" : "tf_make_list_4_ls_elem_shape",
      "begin_seq" : 0,
      "squeeze_mask_k" : false,
      "begin_k" : 0,
      "end_mask_w" : true,
      "end_mask_seq" : false,
      "end_mask_n" : false,
      "debug_info" : "tf_make_list_4_ls_elem_shape",
      "stride_w" : 1,
      "squeeze_mask_seq" : false,
      "begin_mask_w" : false,
      "bottom" : "tf_make_list_4_full_shape",
      "end_n" : 1,
      "squeeze_mask_w" : false,
      "squeeze_mask_n" : false
    },
    {
      "bottom" : "tf_make_list_4_ls_elem_shape,tf_make_list_4_value_elem_shape",
      "alpha" : 1,
      "operation" : 107,
      "weights" : {

      },
      "fused_relu" : 0,
      "debug_info" : "tf_make_list_4_elem_shape_not_equal",
      "top" : "tf_make_list_4_elem_shape_not_equal",
      "type" : "elementwise",
      "name" : "tf_make_list_4_elem_shape_not_equal",
      "beta" : 0
    },
    {
      "axis_mode" : 31,
      "bottom" : "tf_make_list_4_elem_shape_not_equal",
      "weights" : {

      },
      "mode" : 0,
      "debug_info" : "tf_make_list_4_reduce_any",
      "use_version" : 1,
      "top" : "tf_make_list_4_reduce_any__squeeze__",
      "type" : "reduce",
      "name" : "tf_make_list_4_reduce_any"
    },
    {
      "size_of_axes" : 1,
      "bottom" : "tf_make_list_4_reduce_any__squeeze__",
      "axes_0" : 0,
      "weights" : {

      },
      "nd_axis" : 0,
      "debug_info" : "tf_make_list_4_reduce_any",
      "version" : 1,
      "top" : "tf_make_list_4_reduce_any",
      "type" : "squeeze",
      "name" : "tf_make_list_4_reduce_any",
      "squeeze_all" : true
    },
    {
      "weights" : {

      },
      "debug_info" : "tf_make_list_4_condition_re_initialize",
      "top" : "",
      "type" : "cf_if",
      "name" : "tf_make_list_4_condition_re_initialize_if",
      "bottom" : "tf_make_list_4_reduce_any"
    },
    {
      "bottom" : "tf_make_list_4_length,tf_make_list_4_value_elem_shape",
      "weights" : {

      },
      "nd_mode" : true,
      "debug_info" : "tf_make_list_4_re_initialize_shape",
      "axis" : 0,
      "top" : "tf_make_list_4_re_initialize_shape",
      "type" : "general_concat",
      "name" : "tf_make_list_4_re_initialize_shape",
      "attributes" : {
        "basic_block_head" : 1
      }
    },
    {
      "bottom" : "tf_make_list_4_re_initialize_shape",
      "weights" : {

      },
      "nd_mode" : 1,
      "debug_info" : "tf_make_list_4_re_initialize",
      "value" : 0,
      "top" : "tf_make_list_4_re_initialize",
      "type" : "fill",
      "name" : "tf_make_list_4_re_initialize"
    },
    {
      "bottom" : "tf_make_list_4_re_initialize",
      "weights" : {

      },
      "debug_info" : "tf_make_list_4_re_initialize_assign",
      "top" : "tf_make_list_4_@ssa_version_1",
      "type" : "copy",
      "name" : "tf_make_list_4_re_initialize_assign",
      "attributes" : {
        "basic_block_head" : 1
      }
    },
    {
      "bottom" : "",
      "weights" : {

      },
      "debug_info" : "",
      "top" : "",
      "type" : "cf_end",
      "name" : "tf_make_list_4_condition_re_initialize_end",
      "attributes" : {
        "basic_block_head" : 1
      }
    },
    {
      "bottom" : "range_1d_4_max,tf_make_list_4_length",
      "alpha" : 1,
      "operation" : 106,
      "beta" : 0,
      "weights" : {

      },
      "fused_relu" : 0,
      "debug_info" : "tf_make_list_4_is_growing",
      "top" : "tf_make_list_4_is_growing",
      "type" : "elementwise",
      "name" : "tf_make_list_4_is_growing",
      "attributes" : {
        "constant_if_condition" : 30,
        "basic_block_head" : 1
      }
    },
    {
      "bottom" : "tf_make_list_4_is_growing",
      "weights" : {

      },
      "debug_info" : "tf_make_list_4_condition",
      "top" : "",
      "type" : "cf_if",
      "name" : "tf_make_list_4_condition_if",
      "attributes" : {
        "constant_if_condition" : 30
      }
    },
    {
      "name" : "tf_make_list_4_extra_length0",
      "fused_relu" : 0,
      "beta" : 0,
      "operation" : 33,
      "type" : "elementwise",
      "alpha" : 1,
      "attributes" : {
        "basic_block_head" : 1
      },
      "bottom" : "range_1d_4_max,tf_make_list_4_length",
      "debug_info" : "tf_make_list_4_extra_length0",
      "nd_mode" : true,
      "weights" : {

      },
      "top" : "tf_make_list_4_extra_length0"
    },
    {
      "bottom" : "tf_make_list_4_extra_length0",
      "alpha" : 1,
      "operation" : 0,
      "weights" : {

      },
      "fused_relu" : 0,
      "debug_info" : "tf_make_list_4_extra_length1",
      "top" : "tf_make_list_4_extra_length1",
      "type" : "elementwise",
      "name" : "tf_make_list_4_extra_length1",
      "beta" : 0
    },
    {
      "bottom" : "tf_make_list_4_extra_length1,tf_make_list_4_value_elem_shape",
      "weights" : {

      },
      "nd_mode" : true,
      "axis" : 0,
      "debug_info" : "tf_make_list_4_alloc_shape",
      "top" : "tf_make_list_4_alloc_shape",
      "type" : "general_concat",
      "name" : "tf_make_list_4_alloc_shape"
    },
    {
      "bottom" : "tf_make_list_4_alloc_shape",
      "weights" : {

      },
      "nd_mode" : 1,
      "debug_info" : "tf_make_list_4_alloc",
      "value" : 0,
      "top" : "tf_make_list_4_alloc",
      "type" : "fill",
      "name" : "tf_make_list_4_alloc"
    },
    {
      "bottom" : "tf_make_list_4,tf_make_list_4_@ssa_version_1",
      "weights" : {

      },
      "debug_info" : "",
      "top" : "tf_make_list_4_@ssa_version_3",
      "type" : "phi_virtual",
      "name" : "phi_tf_make_list_4_@ssa_version_3",
      "attributes" : {
        "basic_block_head" : 1
      }
    },
    {
      "bottom" : "tf_make_list_4_@ssa_version_3,tf_make_list_4_alloc",
      "weights" : {

      },
      "nd_mode" : true,
      "axis" : 0,
      "debug_info" : "tf_make_list_4_new",
      "top" : "tf_make_list_4_new",
      "type" : "general_concat",
      "name" : "tf_make_list_4_new"
    },
    {
      "weights" : {

      },
      "debug_info" : "tf_make_list_4_assign",
      "top" : "tf_make_list_4_@ssa_version_2",
      "type" : "copy",
      "name" : "tf_make_list_4_assign",
      "bottom" : "tf_make_list_4_new"
    },
    {
      "bottom" : "",
      "weights" : {

      },
      "debug_info" : "",
      "top" : "",
      "type" : "cf_end",
      "name" : "tf_make_list_4_condition_end",
      "attributes" : {
        "basic_block_head" : 1
      }
    },
    {
      "bottom" : "tf_make_list_4,tf_make_list_4_@ssa_version_1,tf_make_list_4_@ssa_version_2,tf_make_list_4_@ssa_version_3",
      "weights" : {

      },
      "debug_info" : "",
      "top" : "tf_make_list_4_@ssa_version_4",
      "type" : "phi_virtual",
      "name" : "phi_tf_make_list_4_@ssa_version_4",
      "attributes" : {
        "basic_block_head" : 1
      }
    },
    {
      "bottom" : "tf_make_list_4_@ssa_version_4,range_1d_4,functional_1\/bidirectional\/forward_lstm\/PartitionedCall\/transpose",
      "weights" : {

      },
      "mode" : 0,
      "debug_info" : "functional_1\/bidirectional\/forward_lstm\/PartitionedCall\/TensorArrayUnstack\/TensorListFromTensor",
      "axis" : 0,
      "top" : "functional_1\/bidirectional\/forward_lstm\/PartitionedCall\/TensorArrayUnstack\/TensorListFromTensor",
      "type" : "scatter_nd",
      "name" : "functional_1\/bidirectional\/forward_lstm\/PartitionedCall\/TensorArrayUnstack\/TensorListFromTensor",
      "accumulation_mode" : 0
    },
    {
      "begin_n" : 0,
      "end_mask_h" : true,
      "end_w" : 1,
      "end_h" : 0,
      "begin_h" : 0,
      "stride_n" : 1,
      "end_seq" : 1,
      "begin_mask_seq" : false,
      "begin_mask_h" : true,
      "squeeze_mask_h" : false,
      "stride_k" : 1,
      "type" : "general_slice",
      "begin_mask_k" : true,
      "begin_w" : 0,
      "end_mask_k" : true,
      "weights" : {

      },
      "stride_h" : 1,
      "begin_mask_n" : false,
      "name" : "functional_1\/bidirectional\/forward_lstm\/PartitionedCall\/strided_slice_1",
      "stride_seq" : 1,
      "end_k" : 0,
      "top" : "functional_1\/bidirectional\/forward_lstm\/PartitionedCall\/strided_slice_1",
      "begin_seq" : 0,
      "squeeze_mask_k" : false,
      "begin_k" : 0,
      "end_mask_w" : false,
      "end_mask_seq" : false,
      "end_mask_n" : false,
      "debug_info" : "functional_1\/bidirectional\/forward_lstm\/PartitionedCall\/strided_slice_1",
      "stride_w" : 1,
      "squeeze_mask_seq" : false,
      "begin_mask_w" : false,
      "bottom" : "functional_1\/bidirectional\/forward_lstm\/PartitionedCall\/transpose",
      "end_n" : 1,
      "squeeze_mask_w" : true,
      "squeeze_mask_n" : false
    },
    {
      "top" : "Func\/functional_1\/bidirectional\/forward_lstm\/PartitionedCall\/input\/_4",
      "w" : 800,
      "h" : 200,
      "name" : "Func\/functional_1\/bidirectional\/forward_lstm\/PartitionedCall\/input\/_4",
      "nd_rank" : 2,
      "type" : "load_constant",
      "k" : 1,
      "bottom" : "",
      "debug_info" : "Func\/functional_1\/bidirectional\/forward_lstm\/PartitionedCall\/input\/_4",
      "n" : 1,
      "weights" : {

      },
      "constant_blob" : 35
    },
    {
      "bottom" : "functional_1\/bidirectional\/forward_lstm\/zeros,Func\/functional_1\/bidirectional\/forward_lstm\/PartitionedCall\/input\/_4",
      "weights" : {

      },
      "debug_info" : "functional_1\/bidirectional\/forward_lstm\/PartitionedCall\/MatMul_1",
      "top" : "functional_1\/bidirectional\/forward_lstm\/PartitionedCall\/MatMul_1",
      "type" : "batch_matmul",
      "name" : "functional_1\/bidirectional\/forward_lstm\/PartitionedCall\/MatMul_1",
      "channel_mode" : false
    },
    {
      "begin_n" : 0,
      "end_mask_h" : true,
      "end_w" : 1,
      "end_h" : 1,
      "begin_h" : 0,
      "stride_n" : 1,
      "end_seq" : 1,
      "begin_mask_seq" : false,
      "begin_mask_h" : true,
      "squeeze_mask_h" : false,
      "stride_k" : 1,
      "type" : "general_slice",
      "begin_mask_k" : true,
      "begin_w" : 0,
      "end_mask_k" : true,
      "weights" : {

      },
      "stride_h" : 1,
      "begin_mask_n" : false,
      "name" : "functional_1\/bidirectional\/backward_lstm\/PartitionedCall\/ReverseV2",
      "stride_seq" : 1,
      "end_k" : 1,
      "top" : "functional_1\/bidirectional\/backward_lstm\/PartitionedCall\/ReverseV2",
      "begin_seq" : 0,
      "squeeze_mask_k" : false,
      "begin_k" : 0,
      "end_mask_w" : true,
      "end_mask_seq" : false,
      "end_mask_n" : false,
      "debug_info" : "functional_1\/bidirectional\/backward_lstm\/PartitionedCall\/ReverseV2",
      "stride_w" : -1,
      "squeeze_mask_seq" : false,
      "begin_mask_w" : true,
      "bottom" : "functional_1\/bidirectional\/backward_lstm\/PartitionedCall\/transpose",
      "end_n" : 1,
      "squeeze_mask_w" : false,
      "squeeze_mask_n" : false
    },
    {
      "begin_n" : 0,
      "end_mask_h" : true,
      "end_w" : 1,
      "end_h" : 0,
      "begin_h" : 0,
      "stride_n" : 1,
      "end_seq" : 1,
      "begin_mask_seq" : false,
      "begin_mask_h" : true,
      "squeeze_mask_h" : false,
      "stride_k" : 1,
      "type" : "general_slice",
      "begin_mask_k" : true,
      "begin_w" : 0,
      "end_mask_k" : true,
      "weights" : {

      },
      "stride_h" : 1,
      "begin_mask_n" : false,
      "name" : "functional_1\/bidirectional\/backward_lstm\/PartitionedCall\/strided_slice_1",
      "stride_seq" : 1,
      "end_k" : 0,
      "top" : "functional_1\/bidirectional\/backward_lstm\/PartitionedCall\/strided_slice_1",
      "begin_seq" : 0,
      "squeeze_mask_k" : false,
      "begin_k" : 0,
      "end_mask_w" : false,
      "end_mask_seq" : false,
      "end_mask_n" : false,
      "debug_info" : "functional_1\/bidirectional\/backward_lstm\/PartitionedCall\/strided_slice_1",
      "stride_w" : 1,
      "squeeze_mask_seq" : false,
      "begin_mask_w" : false,
      "bottom" : "functional_1\/bidirectional\/backward_lstm\/PartitionedCall\/transpose",
      "end_n" : 1,
      "squeeze_mask_w" : true,
      "squeeze_mask_n" : false
    },
    {
      "top" : "Func\/functional_1\/bidirectional\/backward_lstm\/PartitionedCall\/input\/_16",
      "w" : 800,
      "h" : 200,
      "name" : "Func\/functional_1\/bidirectional\/backward_lstm\/PartitionedCall\/input\/_16",
      "nd_rank" : 2,
      "type" : "load_constant",
      "k" : 1,
      "bottom" : "",
      "debug_info" : "Func\/functional_1\/bidirectional\/backward_lstm\/PartitionedCall\/input\/_16",
      "n" : 1,
      "weights" : {

      },
      "constant_blob" : 37
    },
    {
      "bottom" : "functional_1\/bidirectional\/backward_lstm\/zeros,Func\/functional_1\/bidirectional\/backward_lstm\/PartitionedCall\/input\/_16",
      "weights" : {

      },
      "debug_info" : "functional_1\/bidirectional\/backward_lstm\/PartitionedCall\/MatMul_1",
      "top" : "functional_1\/bidirectional\/backward_lstm\/PartitionedCall\/MatMul_1",
      "type" : "batch_matmul",
      "name" : "functional_1\/bidirectional\/backward_lstm\/PartitionedCall\/MatMul_1",
      "channel_mode" : false
    },
    {
      "top" : "Func\/functional_1\/bidirectional\/forward_lstm\/PartitionedCall\/input\/_3",
      "w" : 800,
      "h" : 10,
      "name" : "Func\/functional_1\/bidirectional\/forward_lstm\/PartitionedCall\/input\/_3",
      "nd_rank" : 2,
      "type" : "load_constant",
      "k" : 1,
      "bottom" : "",
      "debug_info" : "Func\/functional_1\/bidirectional\/forward_lstm\/PartitionedCall\/input\/_3",
      "n" : 1,
      "weights" : {

      },
      "constant_blob" : 39
    },
    {
      "bottom" : "functional_1\/bidirectional\/forward_lstm\/PartitionedCall\/strided_slice_1,Func\/functional_1\/bidirectional\/forward_lstm\/PartitionedCall\/input\/_3",
      "weights" : {

      },
      "debug_info" : "functional_1\/bidirectional\/forward_lstm\/PartitionedCall\/MatMul",
      "top" : "functional_1\/bidirectional\/forward_lstm\/PartitionedCall\/MatMul",
      "type" : "batch_matmul",
      "name" : "functional_1\/bidirectional\/forward_lstm\/PartitionedCall\/MatMul",
      "channel_mode" : false
    },
    {
      "top" : "tf_make_list_5",
      "w" : 10,
      "h" : 1,
      "name" : "tf_make_list_5",
      "nd_rank" : 3,
      "type" : "load_constant",
      "k" : 82,
      "bottom" : "",
      "debug_info" : "tf_make_list_5",
      "n" : 1,
      "weights" : {

      },
      "constant_blob" : 41
    },
    {
      "top" : "range_1d_5",
      "w" : 82,
      "h" : 1,
      "name" : "range_1d_5",
      "nd_rank" : 1,
      "type" : "load_constant",
      "k" : 1,
      "bottom" : "",
      "debug_info" : "range_1d_5",
      "n" : 1,
      "weights" : {

      },
      "constant_blob" : 43
    },
    {
      "axis_mode" : 1,
      "bottom" : "range_1d_5",
      "weights" : {

      },
      "mode" : 9,
      "nd_axis" : 0,
      "nd_mode" : true,
      "debug_info" : "range_1d_5_max",
      "use_version" : 1,
      "top" : "range_1d_5_max_squeeze",
      "type" : "reduce",
      "name" : "range_1d_5_max"
    },
    {
      "size_of_axes" : 1,
      "bottom" : "range_1d_5_max_squeeze",
      "axes_0" : 0,
      "weights" : {

      },
      "nd_axis" : 0,
      "debug_info" : "range_1d_5_max",
      "version" : 1,
      "top" : "range_1d_5_max",
      "type" : "squeeze",
      "name" : "range_1d_5_max"
    },
    {
      "bottom" : "tf_make_list_5",
      "weights" : {

      },
      "nd_mode" : 1,
      "axis" : -1,
      "debug_info" : "tf_make_list_5_full_shape",
      "top" : "tf_make_list_5_full_shape",
      "type" : "get_shape",
      "name" : "tf_make_list_5_full_shape"
    },
    {
      "begin_n" : 0,
      "end_mask_h" : false,
      "end_w" : 1,
      "end_h" : 1,
      "begin_h" : 0,
      "stride_n" : 1,
      "end_seq" : 1,
      "begin_mask_seq" : false,
      "begin_mask_h" : false,
      "squeeze_mask_h" : false,
      "stride_k" : 1,
      "type" : "general_slice",
      "begin_mask_k" : false,
      "begin_w" : 0,
      "end_mask_k" : false,
      "weights" : {

      },
      "stride_h" : 1,
      "begin_mask_n" : false,
      "name" : "tf_make_list_5_length",
      "stride_seq" : 1,
      "end_k" : 1,
      "top" : "tf_make_list_5_length",
      "begin_seq" : 0,
      "squeeze_mask_k" : false,
      "begin_k" : 0,
      "end_mask_w" : false,
      "end_mask_seq" : false,
      "end_mask_n" : false,
      "debug_info" : "tf_make_list_5_length",
      "stride_w" : 1,
      "squeeze_mask_seq" : false,
      "begin_mask_w" : false,
      "bottom" : "tf_make_list_5_full_shape",
      "end_n" : 1,
      "squeeze_mask_w" : false,
      "squeeze_mask_n" : false
    },
    {
      "bottom" : "functional_1\/bidirectional\/backward_lstm\/PartitionedCall\/ReverseV2",
      "weights" : {

      },
      "nd_mode" : 1,
      "axis" : -1,
      "debug_info" : "tf_make_list_5_raw_value_elem_shape",
      "top" : "tf_make_list_5_raw_value_elem_shape",
      "type" : "get_shape",
      "name" : "tf_make_list_5_raw_value_elem_shape"
    },
    {
      "begin_n" : 0,
      "end_mask_h" : false,
      "end_w" : -1,
      "end_h" : 1,
      "begin_h" : 0,
      "stride_n" : 1,
      "end_seq" : 1,
      "begin_mask_seq" : false,
      "begin_mask_h" : false,
      "squeeze_mask_h" : false,
      "stride_k" : 1,
      "type" : "general_slice",
      "begin_mask_k" : false,
      "begin_w" : 1,
      "end_mask_k" : false,
      "weights" : {

      },
      "stride_h" : 1,
      "begin_mask_n" : false,
      "name" : "tf_make_list_5_value_elem_shape",
      "stride_seq" : 1,
      "end_k" : 1,
      "top" : "tf_make_list_5_value_elem_shape",
      "begin_seq" : 0,
      "squeeze_mask_k" : false,
      "begin_k" : 0,
      "end_mask_w" : true,
      "end_mask_seq" : false,
      "end_mask_n" : false,
      "debug_info" : "tf_make_list_5_value_elem_shape",
      "stride_w" : 1,
      "squeeze_mask_seq" : false,
      "begin_mask_w" : false,
      "bottom" : "tf_make_list_5_raw_value_elem_shape",
      "end_n" : 1,
      "squeeze_mask_w" : false,
      "squeeze_mask_n" : false
    },
    {
      "begin_n" : 0,
      "end_mask_h" : false,
      "end_w" : -1,
      "end_h" : 1,
      "begin_h" : 0,
      "stride_n" : 1,
      "end_seq" : 1,
      "begin_mask_seq" : false,
      "begin_mask_h" : false,
      "squeeze_mask_h" : false,
      "stride_k" : 1,
      "type" : "general_slice",
      "begin_mask_k" : false,
      "begin_w" : 1,
      "end_mask_k" : false,
      "weights" : {

      },
      "stride_h" : 1,
      "begin_mask_n" : false,
      "name" : "tf_make_list_5_ls_elem_shape",
      "stride_seq" : 1,
      "end_k" : 1,
      "top" : "tf_make_list_5_ls_elem_shape",
      "begin_seq" : 0,
      "squeeze_mask_k" : false,
      "begin_k" : 0,
      "end_mask_w" : true,
      "end_mask_seq" : false,
      "end_mask_n" : false,
      "debug_info" : "tf_make_list_5_ls_elem_shape",
      "stride_w" : 1,
      "squeeze_mask_seq" : false,
      "begin_mask_w" : false,
      "bottom" : "tf_make_list_5_full_shape",
      "end_n" : 1,
      "squeeze_mask_w" : false,
      "squeeze_mask_n" : false
    },
    {
      "bottom" : "tf_make_list_5_ls_elem_shape,tf_make_list_5_value_elem_shape",
      "alpha" : 1,
      "operation" : 107,
      "weights" : {

      },
      "fused_relu" : 0,
      "debug_info" : "tf_make_list_5_elem_shape_not_equal",
      "top" : "tf_make_list_5_elem_shape_not_equal",
      "type" : "elementwise",
      "name" : "tf_make_list_5_elem_shape_not_equal",
      "beta" : 0
    },
    {
      "axis_mode" : 31,
      "bottom" : "tf_make_list_5_elem_shape_not_equal",
      "weights" : {

      },
      "mode" : 0,
      "debug_info" : "tf_make_list_5_reduce_any",
      "use_version" : 1,
      "top" : "tf_make_list_5_reduce_any__squeeze__",
      "type" : "reduce",
      "name" : "tf_make_list_5_reduce_any"
    },
    {
      "size_of_axes" : 1,
      "bottom" : "tf_make_list_5_reduce_any__squeeze__",
      "axes_0" : 0,
      "weights" : {

      },
      "nd_axis" : 0,
      "debug_info" : "tf_make_list_5_reduce_any",
      "version" : 1,
      "top" : "tf_make_list_5_reduce_any",
      "type" : "squeeze",
      "name" : "tf_make_list_5_reduce_any",
      "squeeze_all" : true
    },
    {
      "weights" : {

      },
      "debug_info" : "tf_make_list_5_condition_re_initialize",
      "top" : "",
      "type" : "cf_if",
      "name" : "tf_make_list_5_condition_re_initialize_if",
      "bottom" : "tf_make_list_5_reduce_any"
    },
    {
      "bottom" : "tf_make_list_5_length,tf_make_list_5_value_elem_shape",
      "weights" : {

      },
      "nd_mode" : true,
      "debug_info" : "tf_make_list_5_re_initialize_shape",
      "axis" : 0,
      "top" : "tf_make_list_5_re_initialize_shape",
      "type" : "general_concat",
      "name" : "tf_make_list_5_re_initialize_shape",
      "attributes" : {
        "basic_block_head" : 1
      }
    },
    {
      "bottom" : "tf_make_list_5_re_initialize_shape",
      "weights" : {

      },
      "nd_mode" : 1,
      "debug_info" : "tf_make_list_5_re_initialize",
      "value" : 0,
      "top" : "tf_make_list_5_re_initialize",
      "type" : "fill",
      "name" : "tf_make_list_5_re_initialize"
    },
    {
      "bottom" : "tf_make_list_5_re_initialize",
      "weights" : {

      },
      "debug_info" : "tf_make_list_5_re_initialize_assign",
      "top" : "tf_make_list_5_@ssa_version_1",
      "type" : "copy",
      "name" : "tf_make_list_5_re_initialize_assign",
      "attributes" : {
        "basic_block_head" : 1
      }
    },
    {
      "bottom" : "",
      "weights" : {

      },
      "debug_info" : "",
      "top" : "",
      "type" : "cf_end",
      "name" : "tf_make_list_5_condition_re_initialize_end",
      "attributes" : {
        "basic_block_head" : 1
      }
    },
    {
      "bottom" : "range_1d_5_max,tf_make_list_5_length",
      "alpha" : 1,
      "operation" : 106,
      "beta" : 0,
      "weights" : {

      },
      "fused_relu" : 0,
      "debug_info" : "tf_make_list_5_is_growing",
      "top" : "tf_make_list_5_is_growing",
      "type" : "elementwise",
      "name" : "tf_make_list_5_is_growing",
      "attributes" : {
        "constant_if_condition" : 30,
        "basic_block_head" : 1
      }
    },
    {
      "bottom" : "tf_make_list_5_is_growing",
      "weights" : {

      },
      "debug_info" : "tf_make_list_5_condition",
      "top" : "",
      "type" : "cf_if",
      "name" : "tf_make_list_5_condition_if",
      "attributes" : {
        "constant_if_condition" : 30
      }
    },
    {
      "name" : "tf_make_list_5_extra_length0",
      "fused_relu" : 0,
      "beta" : 0,
      "operation" : 33,
      "type" : "elementwise",
      "alpha" : 1,
      "attributes" : {
        "basic_block_head" : 1
      },
      "bottom" : "range_1d_5_max,tf_make_list_5_length",
      "debug_info" : "tf_make_list_5_extra_length0",
      "nd_mode" : true,
      "weights" : {

      },
      "top" : "tf_make_list_5_extra_length0"
    },
    {
      "bottom" : "tf_make_list_5_extra_length0",
      "alpha" : 1,
      "operation" : 0,
      "weights" : {

      },
      "fused_relu" : 0,
      "debug_info" : "tf_make_list_5_extra_length1",
      "top" : "tf_make_list_5_extra_length1",
      "type" : "elementwise",
      "name" : "tf_make_list_5_extra_length1",
      "beta" : 0
    },
    {
      "bottom" : "tf_make_list_5_extra_length1,tf_make_list_5_value_elem_shape",
      "weights" : {

      },
      "nd_mode" : true,
      "axis" : 0,
      "debug_info" : "tf_make_list_5_alloc_shape",
      "top" : "tf_make_list_5_alloc_shape",
      "type" : "general_concat",
      "name" : "tf_make_list_5_alloc_shape"
    },
    {
      "bottom" : "tf_make_list_5_alloc_shape",
      "weights" : {

      },
      "nd_mode" : 1,
      "debug_info" : "tf_make_list_5_alloc",
      "value" : 0,
      "top" : "tf_make_list_5_alloc",
      "type" : "fill",
      "name" : "tf_make_list_5_alloc"
    },
    {
      "bottom" : "tf_make_list_5,tf_make_list_5_@ssa_version_1",
      "weights" : {

      },
      "debug_info" : "",
      "top" : "tf_make_list_5_@ssa_version_3",
      "type" : "phi_virtual",
      "name" : "phi_tf_make_list_5_@ssa_version_3",
      "attributes" : {
        "basic_block_head" : 1
      }
    },
    {
      "bottom" : "tf_make_list_5_@ssa_version_3,tf_make_list_5_alloc",
      "weights" : {

      },
      "nd_mode" : true,
      "axis" : 0,
      "debug_info" : "tf_make_list_5_new",
      "top" : "tf_make_list_5_new",
      "type" : "general_concat",
      "name" : "tf_make_list_5_new"
    },
    {
      "weights" : {

      },
      "debug_info" : "tf_make_list_5_assign",
      "top" : "tf_make_list_5_@ssa_version_2",
      "type" : "copy",
      "name" : "tf_make_list_5_assign",
      "bottom" : "tf_make_list_5_new"
    },
    {
      "bottom" : "",
      "weights" : {

      },
      "debug_info" : "",
      "top" : "",
      "type" : "cf_end",
      "name" : "tf_make_list_5_condition_end",
      "attributes" : {
        "basic_block_head" : 1
      }
    },
    {
      "bottom" : "tf_make_list_5,tf_make_list_5_@ssa_version_1,tf_make_list_5_@ssa_version_2,tf_make_list_5_@ssa_version_3",
      "weights" : {

      },
      "debug_info" : "",
      "top" : "tf_make_list_5_@ssa_version_4",
      "type" : "phi_virtual",
      "name" : "phi_tf_make_list_5_@ssa_version_4",
      "attributes" : {
        "basic_block_head" : 1
      }
    },
    {
      "bottom" : "tf_make_list_5_@ssa_version_4,range_1d_5,functional_1\/bidirectional\/backward_lstm\/PartitionedCall\/ReverseV2",
      "weights" : {

      },
      "mode" : 0,
      "debug_info" : "functional_1\/bidirectional\/backward_lstm\/PartitionedCall\/TensorArrayUnstack\/TensorListFromTensor",
      "axis" : 0,
      "top" : "functional_1\/bidirectional\/backward_lstm\/PartitionedCall\/TensorArrayUnstack\/TensorListFromTensor",
      "type" : "scatter_nd",
      "name" : "functional_1\/bidirectional\/backward_lstm\/PartitionedCall\/TensorArrayUnstack\/TensorListFromTensor",
      "accumulation_mode" : 0
    },
    {
      "top" : "Func\/functional_1\/bidirectional\/backward_lstm\/PartitionedCall\/input\/_15",
      "w" : 800,
      "h" : 10,
      "name" : "Func\/functional_1\/bidirectional\/backward_lstm\/PartitionedCall\/input\/_15",
      "nd_rank" : 2,
      "type" : "load_constant",
      "k" : 1,
      "bottom" : "",
      "debug_info" : "Func\/functional_1\/bidirectional\/backward_lstm\/PartitionedCall\/input\/_15",
      "n" : 1,
      "weights" : {

      },
      "constant_blob" : 45
    },
    {
      "bottom" : "functional_1\/bidirectional\/backward_lstm\/PartitionedCall\/strided_slice_1,Func\/functional_1\/bidirectional\/backward_lstm\/PartitionedCall\/input\/_15",
      "weights" : {

      },
      "debug_info" : "functional_1\/bidirectional\/backward_lstm\/PartitionedCall\/MatMul",
      "top" : "functional_1\/bidirectional\/backward_lstm\/PartitionedCall\/MatMul",
      "type" : "batch_matmul",
      "name" : "functional_1\/bidirectional\/backward_lstm\/PartitionedCall\/MatMul",
      "channel_mode" : false
    },
    {
      "top" : "functional_1\/bidirectional\/forward_lstm\/PartitionedCall\/TensorArrayV2_1",
      "w" : 200,
      "h" : 1,
      "name" : "functional_1\/bidirectional\/forward_lstm\/PartitionedCall\/TensorArrayV2_1",
      "nd_rank" : 3,
      "type" : "load_constant",
      "k" : 82,
      "bottom" : "",
      "debug_info" : "functional_1\/bidirectional\/forward_lstm\/PartitionedCall\/TensorArrayV2_1",
      "n" : 1,
      "weights" : {

      },
      "constant_blob" : 47
    },
    {
      "bottom" : "functional_1\/bidirectional\/forward_lstm\/PartitionedCall\/MatMul,functional_1\/bidirectional\/forward_lstm\/PartitionedCall\/MatMul_1",
      "alpha" : 1,
      "operation" : 0,
      "weights" : {

      },
      "fused_relu" : 0,
      "debug_info" : "functional_1\/bidirectional\/forward_lstm\/PartitionedCall\/add",
      "nd_mode" : true,
      "top" : "functional_1\/bidirectional\/forward_lstm\/PartitionedCall\/add",
      "type" : "elementwise",
      "name" : "functional_1\/bidirectional\/forward_lstm\/PartitionedCall\/add",
      "beta" : 0
    },
    {
      "top" : "functional_1\/bidirectional\/backward_lstm\/PartitionedCall\/TensorArrayV2_1",
      "w" : 200,
      "h" : 1,
      "name" : "functional_1\/bidirectional\/backward_lstm\/PartitionedCall\/TensorArrayV2_1",
      "nd_rank" : 3,
      "type" : "load_constant",
      "k" : 82,
      "bottom" : "",
      "debug_info" : "functional_1\/bidirectional\/backward_lstm\/PartitionedCall\/TensorArrayV2_1",
      "n" : 1,
      "weights" : {

      },
      "constant_blob" : 49
    },
    {
      "bottom" : "functional_1\/bidirectional\/backward_lstm\/PartitionedCall\/MatMul,functional_1\/bidirectional\/backward_lstm\/PartitionedCall\/MatMul_1",
      "alpha" : 1,
      "operation" : 0,
      "weights" : {

      },
      "fused_relu" : 0,
      "debug_info" : "functional_1\/bidirectional\/backward_lstm\/PartitionedCall\/add",
      "nd_mode" : true,
      "top" : "functional_1\/bidirectional\/backward_lstm\/PartitionedCall\/add",
      "type" : "elementwise",
      "name" : "functional_1\/bidirectional\/backward_lstm\/PartitionedCall\/add",
      "beta" : 0
    },
    {
      "top" : "Func\/functional_1\/bidirectional\/forward_lstm\/PartitionedCall\/input\/_5",
      "w" : 800,
      "h" : 1,
      "name" : "Func\/functional_1\/bidirectional\/forward_lstm\/PartitionedCall\/input\/_5",
      "nd_rank" : 1,
      "type" : "load_constant",
      "k" : 1,
      "bottom" : "",
      "debug_info" : "Func\/functional_1\/bidirectional\/forward_lstm\/PartitionedCall\/input\/_5",
      "n" : 1,
      "weights" : {

      },
      "constant_blob" : 51
    },
    {
      "bottom" : "functional_1\/bidirectional\/forward_lstm\/PartitionedCall\/add,Func\/functional_1\/bidirectional\/forward_lstm\/PartitionedCall\/input\/_5",
      "alpha" : 1,
      "operation" : 0,
      "weights" : {

      },
      "fused_relu" : 0,
      "debug_info" : "functional_1\/bidirectional\/forward_lstm\/PartitionedCall\/BiasAdd",
      "nd_mode" : true,
      "top" : "functional_1\/bidirectional\/forward_lstm\/PartitionedCall\/BiasAdd",
      "type" : "elementwise",
      "name" : "functional_1\/bidirectional\/forward_lstm\/PartitionedCall\/BiasAdd",
      "beta" : 0
    },
    {
      "top" : "Func\/functional_1\/bidirectional\/backward_lstm\/PartitionedCall\/input\/_17",
      "w" : 800,
      "h" : 1,
      "name" : "Func\/functional_1\/bidirectional\/backward_lstm\/PartitionedCall\/input\/_17",
      "nd_rank" : 1,
      "type" : "load_constant",
      "k" : 1,
      "bottom" : "",
      "debug_info" : "Func\/functional_1\/bidirectional\/backward_lstm\/PartitionedCall\/input\/_17",
      "n" : 1,
      "weights" : {

      },
      "constant_blob" : 53
    },
    {
      "bottom" : "functional_1\/bidirectional\/backward_lstm\/PartitionedCall\/add,Func\/functional_1\/bidirectional\/backward_lstm\/PartitionedCall\/input\/_17",
      "alpha" : 1,
      "operation" : 0,
      "weights" : {

      },
      "fused_relu" : 0,
      "debug_info" : "functional_1\/bidirectional\/backward_lstm\/PartitionedCall\/BiasAdd",
      "nd_mode" : true,
      "top" : "functional_1\/bidirectional\/backward_lstm\/PartitionedCall\/BiasAdd",
      "type" : "elementwise",
      "name" : "functional_1\/bidirectional\/backward_lstm\/PartitionedCall\/BiasAdd",
      "beta" : 0
    },
    {
      "begin_104" : 0,
      "begin_63" : 0,
      "begin_59" : 0,
      "begin_64" : 0,
      "begin_105" : 0,
      "begin_65" : 0,
      "begin_0" : 0,
      "begin_70" : 0,
      "begin_66" : 0,
      "begin_106" : 0,
      "begin_110" : 0,
      "begin_2" : 0,
      "begin_71" : 0,
      "begin_67" : 0,
      "begin_68" : 0,
      "begin_107" : 0,
      "begin_111" : 0,
      "begin_4" : 0,
      "begin_72" : 0,
      "begin_73" : 0,
      "begin_69" : 0,
      "begin_6" : 0,
      "begin_74" : 0,
      "begin_108" : 0,
      "type" : "split_nd",
      "begin_8" : 0,
      "begin_112" : 0,
      "begin_75" : 0,
      "begin_10" : 0,
      "begin_80" : 0,
      "begin_76" : 0,
      "begin_109" : 0,
      "begin_113" : 0,
      "begin_11" : 0,
      "nd_axis" : 1,
      "begin_81" : 0,
      "begin_77" : 0,
      "begin_114" : 0,
      "begin_12" : 0,
      "begin_78" : 0,
      "begin_82" : 0,
      "begin_13" : 0,
      "begin_83" : 0,
      "begin_79" : 0,
      "begin_115" : 0,
      "begin_14" : 0,
      "begin_84" : 0,
      "begin_15" : 0,
      "begin_85" : 0,
      "num_splits" : 4,
      "begin_116" : 0,
      "begin_120" : 0,
      "begin_20" : 0,
      "begin_86" : 0,
      "begin_16" : 0,
      "begin_90" : 0,
      "begin_21" : 0,
      "begin_91" : 0,
      "begin_87" : 0,
      "begin_17" : 0,
      "begin_117" : 0,
      "begin_121" : 0,
      "begin_18" : 0,
      "begin_92" : 0,
      "begin_88" : 0,
      "begin_22" : 0,
      "begin_23" : 0,
      "begin_89" : 0,
      "begin_19" : 0,
      "begin_93" : 0,
      "begin_118" : 0,
      "begin_122" : 0,
      "begin_24" : 0,
      "begin_94" : 0,
      "begin_25" : 0,
      "begin_95" : 0,
      "begin_119" : 0,
      "begin_123" : 0,
      "begin_30" : 0,
      "begin_26" : 0,
      "begin_96" : 0,
      "begin_124" : 0,
      "begin_31" : 0,
      "begin_97" : 0,
      "begin_27" : 0,
      "begin_28" : 0,
      "begin_98" : 0,
      "begin_32" : 0,
      "begin_125" : 0,
      "begin_33" : 0,
      "begin_29" : 0,
      "begin_99" : 0,
      "begin_1" : 0,
      "weights" : {

      },
      "begin_34" : 0,
      "bottom" : "functional_1\/bidirectional\/forward_lstm\/PartitionedCall\/BiasAdd",
      "begin_3" : 0,
      "begin_126" : 0,
      "begin_35" : 0,
      "begin_5" : 0,
      "begin_36" : 0,
      "begin_40" : 0,
      "begin_127" : 0,
      "name" : "functional_1\/bidirectional\/forward_lstm\/PartitionedCall\/split",
      "begin_41" : 0,
      "begin_37" : 0,
      "begin_7" : 0,
      "begin_42" : 0,
      "begin_38" : 0,
      "begin_9" : 0,
      "begin_39" : 0,
      "begin_43" : 0,
      "begin_44" : 0,
      "begin_45" : 0,
      "begin_50" : 0,
      "begin_46" : 0,
      "begin_51" : 0,
      "begin_47" : 0,
      "begin_100" : 0,
      "begin_52" : 0,
      "debug_info" : "functional_1\/bidirectional\/forward_lstm\/PartitionedCall\/split",
      "begin_48" : 0,
      "top" : "functional_1\/bidirectional\/forward_lstm\/PartitionedCall\/split:0,functional_1\/bidirectional\/forward_lstm\/PartitionedCall\/split:1,functional_1\/bidirectional\/forward_lstm\/PartitionedCall\/split:2,functional_1\/bidirectional\/forward_lstm\/PartitionedCall\/split:3",
      "begin_101" : 0,
      "begin_53" : 0,
      "begin_49" : 0,
      "begin_54" : 0,
      "begin_55" : 0,
      "begin_102" : 0,
      "begin_60" : 0,
      "begin_56" : 0,
      "begin_103" : 0,
      "begin_57" : 0,
      "begin_61" : 0,
      "begin_62" : 0,
      "begin_58" : 0
    },
    {
      "begin_104" : 0,
      "begin_63" : 0,
      "begin_59" : 0,
      "begin_64" : 0,
      "begin_105" : 0,
      "begin_65" : 0,
      "begin_0" : 0,
      "begin_70" : 0,
      "begin_66" : 0,
      "begin_106" : 0,
      "begin_110" : 0,
      "begin_2" : 0,
      "begin_71" : 0,
      "begin_67" : 0,
      "begin_68" : 0,
      "begin_107" : 0,
      "begin_111" : 0,
      "begin_4" : 0,
      "begin_72" : 0,
      "begin_73" : 0,
      "begin_69" : 0,
      "begin_6" : 0,
      "begin_74" : 0,
      "begin_108" : 0,
      "type" : "split_nd",
      "begin_8" : 0,
      "begin_112" : 0,
      "begin_75" : 0,
      "begin_10" : 0,
      "begin_80" : 0,
      "begin_76" : 0,
      "begin_109" : 0,
      "begin_113" : 0,
      "begin_11" : 0,
      "nd_axis" : 1,
      "begin_81" : 0,
      "begin_77" : 0,
      "begin_114" : 0,
      "begin_12" : 0,
      "begin_78" : 0,
      "begin_82" : 0,
      "begin_13" : 0,
      "begin_83" : 0,
      "begin_79" : 0,
      "begin_115" : 0,
      "begin_14" : 0,
      "begin_84" : 0,
      "begin_15" : 0,
      "begin_85" : 0,
      "num_splits" : 4,
      "begin_116" : 0,
      "begin_120" : 0,
      "begin_20" : 0,
      "begin_86" : 0,
      "begin_16" : 0,
      "begin_90" : 0,
      "begin_21" : 0,
      "begin_91" : 0,
      "begin_87" : 0,
      "begin_17" : 0,
      "begin_117" : 0,
      "begin_121" : 0,
      "begin_18" : 0,
      "begin_92" : 0,
      "begin_88" : 0,
      "begin_22" : 0,
      "begin_23" : 0,
      "begin_89" : 0,
      "begin_19" : 0,
      "begin_93" : 0,
      "begin_118" : 0,
      "begin_122" : 0,
      "begin_24" : 0,
      "begin_94" : 0,
      "begin_25" : 0,
      "begin_95" : 0,
      "begin_119" : 0,
      "begin_123" : 0,
      "begin_30" : 0,
      "begin_26" : 0,
      "begin_96" : 0,
      "begin_124" : 0,
      "begin_31" : 0,
      "begin_97" : 0,
      "begin_27" : 0,
      "begin_28" : 0,
      "begin_98" : 0,
      "begin_32" : 0,
      "begin_125" : 0,
      "begin_33" : 0,
      "begin_29" : 0,
      "begin_99" : 0,
      "begin_1" : 0,
      "weights" : {

      },
      "begin_34" : 0,
      "bottom" : "functional_1\/bidirectional\/backward_lstm\/PartitionedCall\/BiasAdd",
      "begin_3" : 0,
      "begin_126" : 0,
      "begin_35" : 0,
      "begin_5" : 0,
      "begin_36" : 0,
      "begin_40" : 0,
      "begin_127" : 0,
      "name" : "functional_1\/bidirectional\/backward_lstm\/PartitionedCall\/split",
      "begin_41" : 0,
      "begin_37" : 0,
      "begin_7" : 0,
      "begin_42" : 0,
      "begin_38" : 0,
      "begin_9" : 0,
      "begin_39" : 0,
      "begin_43" : 0,
      "begin_44" : 0,
      "begin_45" : 0,
      "begin_50" : 0,
      "begin_46" : 0,
      "begin_51" : 0,
      "begin_47" : 0,
      "begin_100" : 0,
      "begin_52" : 0,
      "debug_info" : "functional_1\/bidirectional\/backward_lstm\/PartitionedCall\/split",
      "begin_48" : 0,
      "top" : "functional_1\/bidirectional\/backward_lstm\/PartitionedCall\/split:0,functional_1\/bidirectional\/backward_lstm\/PartitionedCall\/split:1,functional_1\/bidirectional\/backward_lstm\/PartitionedCall\/split:2,functional_1\/bidirectional\/backward_lstm\/PartitionedCall\/split:3",
      "begin_101" : 0,
      "begin_53" : 0,
      "begin_49" : 0,
      "begin_54" : 0,
      "begin_55" : 0,
      "begin_102" : 0,
      "begin_60" : 0,
      "begin_56" : 0,
      "begin_103" : 0,
      "begin_57" : 0,
      "begin_61" : 0,
      "begin_62" : 0,
      "begin_58" : 0
    },
    {
      "bottom" : "functional_1\/bidirectional\/forward_lstm\/PartitionedCall\/split:0",
      "weights" : {

      },
      "mode" : 3,
      "debug_info" : "functional_1\/bidirectional\/forward_lstm\/PartitionedCall\/Sigmoid",
      "top" : "functional_1\/bidirectional\/forward_lstm\/PartitionedCall\/Sigmoid",
      "type" : "activation",
      "name" : "functional_1\/bidirectional\/forward_lstm\/PartitionedCall\/Sigmoid"
    },
    {
      "bottom" : "functional_1\/bidirectional\/forward_lstm\/PartitionedCall\/split:1",
      "weights" : {

      },
      "mode" : 3,
      "debug_info" : "functional_1\/bidirectional\/forward_lstm\/PartitionedCall\/Sigmoid_1",
      "top" : "functional_1\/bidirectional\/forward_lstm\/PartitionedCall\/Sigmoid_1",
      "type" : "activation",
      "name" : "functional_1\/bidirectional\/forward_lstm\/PartitionedCall\/Sigmoid_1"
    },
    {
      "bottom" : "functional_1\/bidirectional\/forward_lstm\/PartitionedCall\/split:2",
      "weights" : {

      },
      "mode" : 1,
      "debug_info" : "functional_1\/bidirectional\/forward_lstm\/PartitionedCall\/Tanh",
      "top" : "functional_1\/bidirectional\/forward_lstm\/PartitionedCall\/Tanh",
      "type" : "activation",
      "name" : "functional_1\/bidirectional\/forward_lstm\/PartitionedCall\/Tanh"
    },
    {
      "bottom" : "functional_1\/bidirectional\/forward_lstm\/PartitionedCall\/split:3",
      "weights" : {

      },
      "mode" : 3,
      "debug_info" : "functional_1\/bidirectional\/forward_lstm\/PartitionedCall\/Sigmoid_2",
      "top" : "functional_1\/bidirectional\/forward_lstm\/PartitionedCall\/Sigmoid_2",
      "type" : "activation",
      "name" : "functional_1\/bidirectional\/forward_lstm\/PartitionedCall\/Sigmoid_2"
    },
    {
      "bottom" : "functional_1\/bidirectional\/backward_lstm\/PartitionedCall\/split:0",
      "weights" : {

      },
      "mode" : 3,
      "debug_info" : "functional_1\/bidirectional\/backward_lstm\/PartitionedCall\/Sigmoid",
      "top" : "functional_1\/bidirectional\/backward_lstm\/PartitionedCall\/Sigmoid",
      "type" : "activation",
      "name" : "functional_1\/bidirectional\/backward_lstm\/PartitionedCall\/Sigmoid"
    },
    {
      "bottom" : "functional_1\/bidirectional\/backward_lstm\/PartitionedCall\/split:1",
      "weights" : {

      },
      "mode" : 3,
      "debug_info" : "functional_1\/bidirectional\/backward_lstm\/PartitionedCall\/Sigmoid_1",
      "top" : "functional_1\/bidirectional\/backward_lstm\/PartitionedCall\/Sigmoid_1",
      "type" : "activation",
      "name" : "functional_1\/bidirectional\/backward_lstm\/PartitionedCall\/Sigmoid_1"
    },
    {
      "bottom" : "functional_1\/bidirectional\/backward_lstm\/PartitionedCall\/split:2",
      "weights" : {

      },
      "mode" : 1,
      "debug_info" : "functional_1\/bidirectional\/backward_lstm\/PartitionedCall\/Tanh",
      "top" : "functional_1\/bidirectional\/backward_lstm\/PartitionedCall\/Tanh",
      "type" : "activation",
      "name" : "functional_1\/bidirectional\/backward_lstm\/PartitionedCall\/Tanh"
    },
    {
      "bottom" : "functional_1\/bidirectional\/backward_lstm\/PartitionedCall\/split:3",
      "weights" : {

      },
      "mode" : 3,
      "debug_info" : "functional_1\/bidirectional\/backward_lstm\/PartitionedCall\/Sigmoid_2",
      "top" : "functional_1\/bidirectional\/backward_lstm\/PartitionedCall\/Sigmoid_2",
      "type" : "activation",
      "name" : "functional_1\/bidirectional\/backward_lstm\/PartitionedCall\/Sigmoid_2"
    },
    {
      "bottom" : "functional_1\/bidirectional\/forward_lstm\/PartitionedCall\/Sigmoid_1,functional_1\/bidirectional\/forward_lstm\/zeros_1",
      "alpha" : 1,
      "operation" : 1,
      "weights" : {

      },
      "fused_relu" : 0,
      "debug_info" : "functional_1\/bidirectional\/forward_lstm\/PartitionedCall\/mul",
      "nd_mode" : true,
      "top" : "functional_1\/bidirectional\/forward_lstm\/PartitionedCall\/mul",
      "type" : "elementwise",
      "name" : "functional_1\/bidirectional\/forward_lstm\/PartitionedCall\/mul",
      "beta" : 0
    },
    {
      "bottom" : "functional_1\/bidirectional\/forward_lstm\/PartitionedCall\/Tanh,functional_1\/bidirectional\/forward_lstm\/PartitionedCall\/Sigmoid",
      "alpha" : 1,
      "operation" : 1,
      "weights" : {

      },
      "fused_relu" : 0,
      "debug_info" : "functional_1\/bidirectional\/forward_lstm\/PartitionedCall\/mul_1",
      "top" : "functional_1\/bidirectional\/forward_lstm\/PartitionedCall\/mul_1",
      "type" : "elementwise",
      "name" : "functional_1\/bidirectional\/forward_lstm\/PartitionedCall\/mul_1",
      "beta" : 0
    },
    {
      "bottom" : "functional_1\/bidirectional\/backward_lstm\/PartitionedCall\/Sigmoid_1,functional_1\/bidirectional\/backward_lstm\/zeros_1",
      "alpha" : 1,
      "operation" : 1,
      "weights" : {

      },
      "fused_relu" : 0,
      "debug_info" : "functional_1\/bidirectional\/backward_lstm\/PartitionedCall\/mul",
      "nd_mode" : true,
      "top" : "functional_1\/bidirectional\/backward_lstm\/PartitionedCall\/mul",
      "type" : "elementwise",
      "name" : "functional_1\/bidirectional\/backward_lstm\/PartitionedCall\/mul",
      "beta" : 0
    },
    {
      "bottom" : "functional_1\/bidirectional\/backward_lstm\/PartitionedCall\/Tanh,functional_1\/bidirectional\/backward_lstm\/PartitionedCall\/Sigmoid",
      "alpha" : 1,
      "operation" : 1,
      "weights" : {

      },
      "fused_relu" : 0,
      "debug_info" : "functional_1\/bidirectional\/backward_lstm\/PartitionedCall\/mul_1",
      "top" : "functional_1\/bidirectional\/backward_lstm\/PartitionedCall\/mul_1",
      "type" : "elementwise",
      "name" : "functional_1\/bidirectional\/backward_lstm\/PartitionedCall\/mul_1",
      "beta" : 0
    },
    {
      "bottom" : "functional_1\/bidirectional\/forward_lstm\/PartitionedCall\/mul,functional_1\/bidirectional\/forward_lstm\/PartitionedCall\/mul_1",
      "alpha" : 1,
      "operation" : 0,
      "weights" : {

      },
      "fused_relu" : 0,
      "debug_info" : "functional_1\/bidirectional\/forward_lstm\/PartitionedCall\/add_1",
      "nd_mode" : true,
      "top" : "functional_1\/bidirectional\/forward_lstm\/PartitionedCall\/add_1",
      "type" : "elementwise",
      "name" : "functional_1\/bidirectional\/forward_lstm\/PartitionedCall\/add_1",
      "beta" : 0
    },
    {
      "bottom" : "functional_1\/bidirectional\/backward_lstm\/PartitionedCall\/mul,functional_1\/bidirectional\/backward_lstm\/PartitionedCall\/mul_1",
      "alpha" : 1,
      "operation" : 0,
      "weights" : {

      },
      "fused_relu" : 0,
      "debug_info" : "functional_1\/bidirectional\/backward_lstm\/PartitionedCall\/add_1",
      "nd_mode" : true,
      "top" : "functional_1\/bidirectional\/backward_lstm\/PartitionedCall\/add_1",
      "type" : "elementwise",
      "name" : "functional_1\/bidirectional\/backward_lstm\/PartitionedCall\/add_1",
      "beta" : 0
    },
    {
      "bottom" : "functional_1\/bidirectional\/forward_lstm\/PartitionedCall\/add_1",
      "weights" : {

      },
      "mode" : 1,
      "debug_info" : "functional_1\/bidirectional\/forward_lstm\/PartitionedCall\/Tanh_1",
      "top" : "functional_1\/bidirectional\/forward_lstm\/PartitionedCall\/Tanh_1",
      "type" : "activation",
      "name" : "functional_1\/bidirectional\/forward_lstm\/PartitionedCall\/Tanh_1"
    },
    {
      "bottom" : "functional_1\/bidirectional\/backward_lstm\/PartitionedCall\/add_1",
      "weights" : {

      },
      "mode" : 1,
      "debug_info" : "functional_1\/bidirectional\/backward_lstm\/PartitionedCall\/Tanh_1",
      "top" : "functional_1\/bidirectional\/backward_lstm\/PartitionedCall\/Tanh_1",
      "type" : "activation",
      "name" : "functional_1\/bidirectional\/backward_lstm\/PartitionedCall\/Tanh_1"
    },
    {
      "bottom" : "functional_1\/bidirectional\/forward_lstm\/PartitionedCall\/Sigmoid_2,functional_1\/bidirectional\/forward_lstm\/PartitionedCall\/Tanh_1",
      "alpha" : 1,
      "operation" : 1,
      "weights" : {

      },
      "fused_relu" : 0,
      "debug_info" : "functional_1\/bidirectional\/forward_lstm\/PartitionedCall\/mul_2",
      "nd_mode" : true,
      "top" : "functional_1\/bidirectional\/forward_lstm\/PartitionedCall\/mul_2",
      "type" : "elementwise",
      "name" : "functional_1\/bidirectional\/forward_lstm\/PartitionedCall\/mul_2",
      "beta" : 0
    },
    {
      "bottom" : "functional_1\/bidirectional\/backward_lstm\/PartitionedCall\/Sigmoid_2,functional_1\/bidirectional\/backward_lstm\/PartitionedCall\/Tanh_1",
      "alpha" : 1,
      "operation" : 1,
      "weights" : {

      },
      "fused_relu" : 0,
      "debug_info" : "functional_1\/bidirectional\/backward_lstm\/PartitionedCall\/mul_2",
      "nd_mode" : true,
      "top" : "functional_1\/bidirectional\/backward_lstm\/PartitionedCall\/mul_2",
      "type" : "elementwise",
      "name" : "functional_1\/bidirectional\/backward_lstm\/PartitionedCall\/mul_2",
      "beta" : 0
    },
    {
      "bottom" : "functional_1\/bidirectional\/forward_lstm\/PartitionedCall\/mul_2",
      "weights" : {

      },
      "nd_mode" : 1,
      "axis" : -1,
      "debug_info" : "shape_6",
      "top" : "shape_6",
      "type" : "get_shape",
      "name" : "shape_6"
    },
    {
      "bottom" : "shape_6",
      "weights" : {

      },
      "nd_mode" : 1,
      "debug_info" : "functional_1\/bidirectional\/forward_lstm\/PartitionedCall\/zeros_like",
      "value" : 0,
      "top" : "functional_1\/bidirectional\/forward_lstm\/PartitionedCall\/zeros_like",
      "type" : "fill",
      "name" : "functional_1\/bidirectional\/forward_lstm\/PartitionedCall\/zeros_like"
    },
    {
      "bottom" : "functional_1\/bidirectional\/backward_lstm\/PartitionedCall\/mul_2",
      "weights" : {

      },
      "nd_mode" : 1,
      "debug_info" : "shape_7",
      "axis" : -1,
      "top" : "shape_7",
      "type" : "get_shape",
      "name" : "shape_7",
      "attributes" : {
        "basic_block_head" : 1
      }
    },
    {
      "bottom" : "shape_7",
      "weights" : {

      },
      "nd_mode" : 1,
      "debug_info" : "functional_1\/bidirectional\/backward_lstm\/PartitionedCall\/zeros_like",
      "value" : 0,
      "top" : "functional_1\/bidirectional\/backward_lstm\/PartitionedCall\/zeros_like",
      "type" : "fill",
      "name" : "functional_1\/bidirectional\/backward_lstm\/PartitionedCall\/zeros_like"
    },
    {
      "top" : "functional_1\/bidirectional\/forward_lstm\/PartitionedCall\/time",
      "w" : 1,
      "h" : 1,
      "weights" : {

      },
      "nd_rank" : 1,
      "type" : "load_constant",
      "k" : 1,
      "attributes" : {
        "basic_block_head" : 1
      },
      "bottom" : "",
      "debug_info" : "functional_1\/bidirectional\/forward_lstm\/PartitionedCall\/time",
      "n" : 1,
      "name" : "functional_1\/bidirectional\/forward_lstm\/PartitionedCall\/time",
      "constant_blob" : 55
    },
    {
      "weights" : {

      },
      "debug_info" : "functional_1\/bidirectional\/forward_lstm\/PartitionedCall\/while:0_input_copy",
      "top" : "functional_1\/bidirectional\/forward_lstm\/PartitionedCall\/while:0",
      "type" : "copy",
      "name" : "functional_1\/bidirectional\/forward_lstm\/PartitionedCall\/while:0_input_copy",
      "bottom" : "functional_1\/bidirectional\/forward_lstm\/PartitionedCall\/time"
    },
    {
      "weights" : {

      },
      "debug_info" : "functional_1\/bidirectional\/forward_lstm\/PartitionedCall\/while:1_input_copy",
      "top" : "functional_1\/bidirectional\/forward_lstm\/PartitionedCall\/while:1",
      "type" : "copy",
      "name" : "functional_1\/bidirectional\/forward_lstm\/PartitionedCall\/while:1_input_copy",
      "bottom" : "functional_1\/bidirectional\/forward_lstm\/PartitionedCall\/TensorArrayV2_1"
    },
    {
      "weights" : {

      },
      "debug_info" : "functional_1\/bidirectional\/forward_lstm\/PartitionedCall\/while:2_input_copy",
      "top" : "functional_1\/bidirectional\/forward_lstm\/PartitionedCall\/while:2",
      "type" : "copy",
      "name" : "functional_1\/bidirectional\/forward_lstm\/PartitionedCall\/while:2_input_copy",
      "bottom" : "functional_1\/bidirectional\/forward_lstm\/PartitionedCall\/zeros_like"
    },
    {
      "weights" : {

      },
      "debug_info" : "functional_1\/bidirectional\/forward_lstm\/PartitionedCall\/while:3_input_copy",
      "top" : "functional_1\/bidirectional\/forward_lstm\/PartitionedCall\/while:3",
      "type" : "copy",
      "name" : "functional_1\/bidirectional\/forward_lstm\/PartitionedCall\/while:3_input_copy",
      "bottom" : "functional_1\/bidirectional\/forward_lstm\/zeros"
    },
    {
      "weights" : {

      },
      "debug_info" : "functional_1\/bidirectional\/forward_lstm\/PartitionedCall\/while:4_input_copy",
      "top" : "functional_1\/bidirectional\/forward_lstm\/PartitionedCall\/while:4",
      "type" : "copy",
      "name" : "functional_1\/bidirectional\/forward_lstm\/PartitionedCall\/while:4_input_copy",
      "bottom" : "functional_1\/bidirectional\/forward_lstm\/zeros_1"
    },
    {
      "bottom" : "functional_1\/bidirectional\/forward_lstm\/PartitionedCall\/while:0,functional_1\/bidirectional\/forward_lstm\/PartitionedCall\/while:0_@ssa_version_1,functional_1\/bidirectional\/forward_lstm\/PartitionedCall\/while:0_@ssa_version_3,functional_1\/bidirectional\/forward_lstm\/PartitionedCall\/while:0_@ssa_version_4,functional_1\/bidirectional\/forward_lstm\/PartitionedCall\/while:0_@ssa_version_5,functional_1\/bidirectional\/forward_lstm\/PartitionedCall\/while:0_@ssa_version_6",
      "weights" : {

      },
      "debug_info" : "",
      "top" : "functional_1\/bidirectional\/forward_lstm\/PartitionedCall\/while:0_@ssa_version_2",
      "type" : "phi_virtual",
      "name" : "phi_functional_1\/bidirectional\/forward_lstm\/PartitionedCall\/while:0_@ssa_version_2",
      "attributes" : {
        "basic_block_head" : 1
      }
    },
    {
      "weights" : {

      },
      "debug_info" : "functional_1\/bidirectional\/forward_lstm\/PartitionedCall\/while_renamed",
      "top" : "",
      "type" : "cf_loop",
      "name" : "functional_1\/bidirectional\/forward_lstm\/PartitionedCall\/while_renamed_loop_start",
      "bottom" : ""
    },
    {
      "top" : "functional_1\/bidirectional\/forward_lstm\/PartitionedCall\/while\/while_cond_22872\/while\/Less_load_constant_230",
      "w" : 1,
      "h" : 1,
      "name" : "functional_1\/bidirectional\/forward_lstm\/PartitionedCall\/while\/while_cond_22872\/while\/Less_load_constant_230",
      "type" : "load_constant",
      "k" : 1,
      "attributes" : {
        "constant_if_condition" : 10
      },
      "bottom" : "",
      "debug_info" : "functional_1\/bidirectional\/forward_lstm\/PartitionedCall\/while\/while_cond_22872\/while\/Less",
      "n" : 1,
      "weights" : {

      },
      "constant_blob" : 57
    },
    {
      "bottom" : "functional_1\/bidirectional\/forward_lstm\/PartitionedCall\/while:0_@ssa_version_2,functional_1\/bidirectional\/forward_lstm\/PartitionedCall\/while\/while_cond_22872\/while\/Less_load_constant_230",
      "alpha" : 1,
      "operation" : 103,
      "beta" : 0,
      "weights" : {

      },
      "fused_relu" : 0,
      "debug_info" : "functional_1\/bidirectional\/forward_lstm\/PartitionedCall\/while\/while_cond_22872\/while\/Less",
      "top" : "functional_1\/bidirectional\/forward_lstm\/PartitionedCall\/while\/while_cond_22872\/while\/Less",
      "type" : "elementwise",
      "name" : "functional_1\/bidirectional\/forward_lstm\/PartitionedCall\/while\/while_cond_22872\/while\/Less",
      "attributes" : {
        "constant_if_condition" : 10
      }
    },
    {
      "bottom" : "functional_1\/bidirectional\/forward_lstm\/PartitionedCall\/while\/while_cond_22872\/while\/Less",
      "weights" : {

      },
      "debug_info" : "",
      "top" : "",
      "type" : "cf_if",
      "name" : "functional_1\/bidirectional\/forward_lstm\/PartitionedCall\/while_renamed_if",
      "attributes" : {
        "constant_if_condition" : 10
      }
    },
    {
      "bottom" : "functional_1\/bidirectional\/forward_lstm\/PartitionedCall\/while:1,functional_1\/bidirectional\/forward_lstm\/PartitionedCall\/while:1_@ssa_version_1,functional_1\/bidirectional\/forward_lstm\/PartitionedCall\/while:1_@ssa_version_2,functional_1\/bidirectional\/forward_lstm\/PartitionedCall\/while:1_@ssa_version_3,functional_1\/bidirectional\/forward_lstm\/PartitionedCall\/while:1_@ssa_version_5,functional_1\/bidirectional\/forward_lstm\/PartitionedCall\/while:1_@ssa_version_6",
      "weights" : {

      },
      "debug_info" : "",
      "top" : "functional_1\/bidirectional\/forward_lstm\/PartitionedCall\/while:1_@ssa_version_4",
      "type" : "phi_virtual",
      "name" : "phi_functional_1\/bidirectional\/forward_lstm\/PartitionedCall\/while:1_@ssa_version_4",
      "attributes" : {
        "basic_block_head" : 1
      }
    },
    {
      "weights" : {

      },
      "debug_info" : "",
      "top" : "functional_1\/bidirectional\/forward_lstm\/PartitionedCall\/while:4_@ssa_version_2",
      "type" : "phi_virtual",
      "name" : "phi_functional_1\/bidirectional\/forward_lstm\/PartitionedCall\/while:4_@ssa_version_2",
      "bottom" : "functional_1\/bidirectional\/forward_lstm\/PartitionedCall\/while:4,functional_1\/bidirectional\/forward_lstm\/PartitionedCall\/while:4_@ssa_version_1"
    },
    {
      "weights" : {

      },
      "debug_info" : "",
      "top" : "functional_1\/bidirectional\/forward_lstm\/PartitionedCall\/while:3_@ssa_version_2",
      "type" : "phi_virtual",
      "name" : "phi_functional_1\/bidirectional\/forward_lstm\/PartitionedCall\/while:3_@ssa_version_2",
      "bottom" : "functional_1\/bidirectional\/forward_lstm\/PartitionedCall\/while:3,functional_1\/bidirectional\/forward_lstm\/PartitionedCall\/while:3_@ssa_version_1"
    },
    {
      "weights" : {

      },
      "debug_info" : "",
      "top" : "functional_1\/bidirectional\/forward_lstm\/PartitionedCall\/while:0_@ssa_version_3",
      "type" : "phi_virtual",
      "name" : "phi_functional_1\/bidirectional\/forward_lstm\/PartitionedCall\/while:0_@ssa_version_3",
      "bottom" : "functional_1\/bidirectional\/forward_lstm\/PartitionedCall\/while:0,functional_1\/bidirectional\/forward_lstm\/PartitionedCall\/while:0_@ssa_version_1,functional_1\/bidirectional\/forward_lstm\/PartitionedCall\/while:0_@ssa_version_2,functional_1\/bidirectional\/forward_lstm\/PartitionedCall\/while:0_@ssa_version_4,functional_1\/bidirectional\/forward_lstm\/PartitionedCall\/while:0_@ssa_version_5,functional_1\/bidirectional\/forward_lstm\/PartitionedCall\/while:0_@ssa_version_6"
    },
    {
      "bottom" : "functional_1\/bidirectional\/forward_lstm\/PartitionedCall\/while:0_@ssa_version_3",
      "alpha" : 1,
      "operation" : 0,
      "weights" : {

      },
      "fused_relu" : 0,
      "debug_info" : "functional_1\/bidirectional\/forward_lstm\/PartitionedCall\/while\/while_body_22873\/while\/add_2",
      "top" : "functional_1\/bidirectional\/forward_lstm\/PartitionedCall\/while\/while_body_22873\/while\/add_2",
      "type" : "elementwise",
      "name" : "functional_1\/bidirectional\/forward_lstm\/PartitionedCall\/while\/while_body_22873\/while\/add_2",
      "beta" : 0
    },
    {
      "bottom" : "functional_1\/bidirectional\/forward_lstm\/PartitionedCall\/TensorArrayUnstack\/TensorListFromTensor,functional_1\/bidirectional\/forward_lstm\/PartitionedCall\/while:0_@ssa_version_3",
      "weights" : {

      },
      "mode" : 0,
      "debug_info" : "functional_1\/bidirectional\/forward_lstm\/PartitionedCall\/while\/while_body_22873\/while\/TensorArrayV2Read\/TensorListGetItem",
      "axis" : 0,
      "top" : "functional_1\/bidirectional\/forward_lstm\/PartitionedCall\/while\/while_body_22873\/while\/TensorArrayV2Read\/TensorListGetItem_gathered",
      "type" : "gather_nd",
      "name" : "functional_1\/bidirectional\/forward_lstm\/PartitionedCall\/while\/while_body_22873\/while\/TensorArrayV2Read\/TensorListGetItem"
    },
    {
      "size_of_axes" : 1,
      "bottom" : "functional_1\/bidirectional\/forward_lstm\/PartitionedCall\/while\/while_body_22873\/while\/TensorArrayV2Read\/TensorListGetItem_gathered",
      "axes_0" : 0,
      "weights" : {

      },
      "nd_axis" : 0,
      "debug_info" : "functional_1\/bidirectional\/forward_lstm\/PartitionedCall\/while\/while_body_22873\/while\/TensorArrayV2Read\/TensorListGetItem_squeezed",
      "version" : 1,
      "top" : "functional_1\/bidirectional\/forward_lstm\/PartitionedCall\/while\/while_body_22873\/while\/TensorArrayV2Read\/TensorListGetItem",
      "type" : "squeeze",
      "name" : "functional_1\/bidirectional\/forward_lstm\/PartitionedCall\/while\/while_body_22873\/while\/TensorArrayV2Read\/TensorListGetItem_squeezed"
    },
    {
      "bottom" : "functional_1\/bidirectional\/forward_lstm\/PartitionedCall\/TensorArrayUnstack_1\/TensorListFromTensor,functional_1\/bidirectional\/forward_lstm\/PartitionedCall\/while:0_@ssa_version_3",
      "weights" : {

      },
      "mode" : 0,
      "debug_info" : "functional_1\/bidirectional\/forward_lstm\/PartitionedCall\/while\/while_body_22873\/while\/TensorArrayV2Read_1\/TensorListGetItem",
      "axis" : 0,
      "top" : "functional_1\/bidirectional\/forward_lstm\/PartitionedCall\/while\/while_body_22873\/while\/TensorArrayV2Read_1\/TensorListGetItem_gathered",
      "type" : "gather_nd",
      "name" : "functional_1\/bidirectional\/forward_lstm\/PartitionedCall\/while\/while_body_22873\/while\/TensorArrayV2Read_1\/TensorListGetItem"
    },
    {
      "size_of_axes" : 1,
      "bottom" : "functional_1\/bidirectional\/forward_lstm\/PartitionedCall\/while\/while_body_22873\/while\/TensorArrayV2Read_1\/TensorListGetItem_gathered",
      "axes_0" : 0,
      "weights" : {

      },
      "nd_axis" : 0,
      "debug_info" : "functional_1\/bidirectional\/forward_lstm\/PartitionedCall\/while\/while_body_22873\/while\/TensorArrayV2Read_1\/TensorListGetItem_squeezed",
      "version" : 1,
      "top" : "functional_1\/bidirectional\/forward_lstm\/PartitionedCall\/while\/while_body_22873\/while\/TensorArrayV2Read_1\/TensorListGetItem",
      "type" : "squeeze",
      "name" : "functional_1\/bidirectional\/forward_lstm\/PartitionedCall\/while\/while_body_22873\/while\/TensorArrayV2Read_1\/TensorListGetItem_squeezed"
    },
    {
      "bottom" : "functional_1\/bidirectional\/forward_lstm\/PartitionedCall\/while:3_@ssa_version_2,Func\/functional_1\/bidirectional\/forward_lstm\/PartitionedCall\/input\/_4",
      "weights" : {

      },
      "debug_info" : "functional_1\/bidirectional\/forward_lstm\/PartitionedCall\/while\/while_body_22873\/while\/MatMul_1",
      "top" : "functional_1\/bidirectional\/forward_lstm\/PartitionedCall\/while\/while_body_22873\/while\/MatMul_1",
      "type" : "batch_matmul",
      "name" : "functional_1\/bidirectional\/forward_lstm\/PartitionedCall\/while\/while_body_22873\/while\/MatMul_1",
      "channel_mode" : false
    },
    {
      "bottom" : "functional_1\/bidirectional\/forward_lstm\/PartitionedCall\/while\/while_body_22873\/while\/TensorArrayV2Read\/TensorListGetItem,Func\/functional_1\/bidirectional\/forward_lstm\/PartitionedCall\/input\/_3",
      "weights" : {

      },
      "debug_info" : "functional_1\/bidirectional\/forward_lstm\/PartitionedCall\/while\/while_body_22873\/while\/MatMul",
      "top" : "functional_1\/bidirectional\/forward_lstm\/PartitionedCall\/while\/while_body_22873\/while\/MatMul",
      "type" : "batch_matmul",
      "name" : "functional_1\/bidirectional\/forward_lstm\/PartitionedCall\/while\/while_body_22873\/while\/MatMul",
      "channel_mode" : false
    },
    {
      "bottom" : "functional_1\/bidirectional\/forward_lstm\/PartitionedCall\/while\/while_body_22873\/while\/MatMul,functional_1\/bidirectional\/forward_lstm\/PartitionedCall\/while\/while_body_22873\/while\/MatMul_1",
      "alpha" : 1,
      "operation" : 0,
      "weights" : {

      },
      "fused_relu" : 0,
      "debug_info" : "functional_1\/bidirectional\/forward_lstm\/PartitionedCall\/while\/while_body_22873\/while\/add",
      "nd_mode" : true,
      "top" : "functional_1\/bidirectional\/forward_lstm\/PartitionedCall\/while\/while_body_22873\/while\/add",
      "type" : "elementwise",
      "name" : "functional_1\/bidirectional\/forward_lstm\/PartitionedCall\/while\/while_body_22873\/while\/add",
      "beta" : 0
    },
    {
      "bottom" : "functional_1\/bidirectional\/forward_lstm\/PartitionedCall\/while\/while_body_22873\/while\/add,Func\/functional_1\/bidirectional\/forward_lstm\/PartitionedCall\/input\/_5",
      "alpha" : 1,
      "operation" : 0,
      "weights" : {

      },
      "fused_relu" : 0,
      "debug_info" : "functional_1\/bidirectional\/forward_lstm\/PartitionedCall\/while\/while_body_22873\/while\/BiasAdd",
      "nd_mode" : true,
      "top" : "functional_1\/bidirectional\/forward_lstm\/PartitionedCall\/while\/while_body_22873\/while\/BiasAdd",
      "type" : "elementwise",
      "name" : "functional_1\/bidirectional\/forward_lstm\/PartitionedCall\/while\/while_body_22873\/while\/BiasAdd",
      "beta" : 0
    },
    {
      "begin_104" : 0,
      "begin_63" : 0,
      "begin_59" : 0,
      "begin_64" : 0,
      "begin_105" : 0,
      "begin_65" : 0,
      "begin_0" : 0,
      "begin_70" : 0,
      "begin_66" : 0,
      "begin_106" : 0,
      "begin_110" : 0,
      "begin_2" : 0,
      "begin_71" : 0,
      "begin_67" : 0,
      "begin_68" : 0,
      "begin_107" : 0,
      "begin_111" : 0,
      "begin_4" : 0,
      "begin_72" : 0,
      "begin_73" : 0,
      "begin_69" : 0,
      "begin_6" : 0,
      "begin_74" : 0,
      "begin_108" : 0,
      "type" : "split_nd",
      "begin_8" : 0,
      "begin_112" : 0,
      "begin_75" : 0,
      "begin_10" : 0,
      "begin_80" : 0,
      "begin_76" : 0,
      "begin_109" : 0,
      "begin_113" : 0,
      "begin_11" : 0,
      "nd_axis" : 1,
      "begin_81" : 0,
      "begin_77" : 0,
      "begin_114" : 0,
      "begin_12" : 0,
      "begin_78" : 0,
      "begin_82" : 0,
      "begin_13" : 0,
      "begin_83" : 0,
      "begin_79" : 0,
      "begin_115" : 0,
      "begin_14" : 0,
      "begin_84" : 0,
      "begin_15" : 0,
      "begin_85" : 0,
      "num_splits" : 4,
      "begin_116" : 0,
      "begin_120" : 0,
      "begin_20" : 0,
      "begin_86" : 0,
      "begin_16" : 0,
      "begin_90" : 0,
      "begin_21" : 0,
      "begin_91" : 0,
      "begin_87" : 0,
      "begin_17" : 0,
      "begin_117" : 0,
      "begin_121" : 0,
      "begin_18" : 0,
      "begin_92" : 0,
      "begin_88" : 0,
      "begin_22" : 0,
      "begin_23" : 0,
      "begin_89" : 0,
      "begin_19" : 0,
      "begin_93" : 0,
      "begin_118" : 0,
      "begin_122" : 0,
      "begin_24" : 0,
      "begin_94" : 0,
      "begin_25" : 0,
      "begin_95" : 0,
      "begin_119" : 0,
      "begin_123" : 0,
      "begin_30" : 0,
      "begin_26" : 0,
      "begin_96" : 0,
      "begin_124" : 0,
      "begin_31" : 0,
      "begin_97" : 0,
      "begin_27" : 0,
      "begin_28" : 0,
      "begin_98" : 0,
      "begin_32" : 0,
      "begin_125" : 0,
      "begin_33" : 0,
      "begin_29" : 0,
      "begin_99" : 0,
      "begin_1" : 0,
      "weights" : {

      },
      "begin_34" : 0,
      "bottom" : "functional_1\/bidirectional\/forward_lstm\/PartitionedCall\/while\/while_body_22873\/while\/BiasAdd",
      "begin_3" : 0,
      "begin_126" : 0,
      "begin_35" : 0,
      "begin_5" : 0,
      "begin_36" : 0,
      "begin_40" : 0,
      "begin_127" : 0,
      "name" : "functional_1\/bidirectional\/forward_lstm\/PartitionedCall\/while\/while_body_22873\/while\/split",
      "begin_41" : 0,
      "begin_37" : 0,
      "begin_7" : 0,
      "begin_42" : 0,
      "begin_38" : 0,
      "begin_9" : 0,
      "begin_39" : 0,
      "begin_43" : 0,
      "begin_44" : 0,
      "begin_45" : 0,
      "begin_50" : 0,
      "begin_46" : 0,
      "begin_51" : 0,
      "begin_47" : 0,
      "begin_100" : 0,
      "begin_52" : 0,
      "debug_info" : "functional_1\/bidirectional\/forward_lstm\/PartitionedCall\/while\/while_body_22873\/while\/split",
      "begin_48" : 0,
      "top" : "functional_1\/bidirectional\/forward_lstm\/PartitionedCall\/while\/while_body_22873\/while\/split:0,functional_1\/bidirectional\/forward_lstm\/PartitionedCall\/while\/while_body_22873\/while\/split:1,functional_1\/bidirectional\/forward_lstm\/PartitionedCall\/while\/while_body_22873\/while\/split:2,functional_1\/bidirectional\/forward_lstm\/PartitionedCall\/while\/while_body_22873\/while\/split:3",
      "begin_101" : 0,
      "begin_53" : 0,
      "begin_49" : 0,
      "begin_54" : 0,
      "begin_55" : 0,
      "begin_102" : 0,
      "begin_60" : 0,
      "begin_56" : 0,
      "begin_103" : 0,
      "begin_57" : 0,
      "begin_61" : 0,
      "begin_62" : 0,
      "begin_58" : 0
    },
    {
      "bottom" : "functional_1\/bidirectional\/forward_lstm\/PartitionedCall\/while\/while_body_22873\/while\/split:0",
      "weights" : {

      },
      "mode" : 3,
      "debug_info" : "functional_1\/bidirectional\/forward_lstm\/PartitionedCall\/while\/while_body_22873\/while\/Sigmoid",
      "top" : "functional_1\/bidirectional\/forward_lstm\/PartitionedCall\/while\/while_body_22873\/while\/Sigmoid",
      "type" : "activation",
      "name" : "functional_1\/bidirectional\/forward_lstm\/PartitionedCall\/while\/while_body_22873\/while\/Sigmoid"
    },
    {
      "bottom" : "functional_1\/bidirectional\/forward_lstm\/PartitionedCall\/while\/while_body_22873\/while\/split:1",
      "weights" : {

      },
      "mode" : 3,
      "debug_info" : "functional_1\/bidirectional\/forward_lstm\/PartitionedCall\/while\/while_body_22873\/while\/Sigmoid_1",
      "top" : "functional_1\/bidirectional\/forward_lstm\/PartitionedCall\/while\/while_body_22873\/while\/Sigmoid_1",
      "type" : "activation",
      "name" : "functional_1\/bidirectional\/forward_lstm\/PartitionedCall\/while\/while_body_22873\/while\/Sigmoid_1"
    },
    {
      "bottom" : "functional_1\/bidirectional\/forward_lstm\/PartitionedCall\/while\/while_body_22873\/while\/split:2",
      "weights" : {

      },
      "mode" : 1,
      "debug_info" : "functional_1\/bidirectional\/forward_lstm\/PartitionedCall\/while\/while_body_22873\/while\/Tanh",
      "top" : "functional_1\/bidirectional\/forward_lstm\/PartitionedCall\/while\/while_body_22873\/while\/Tanh",
      "type" : "activation",
      "name" : "functional_1\/bidirectional\/forward_lstm\/PartitionedCall\/while\/while_body_22873\/while\/Tanh"
    },
    {
      "bottom" : "functional_1\/bidirectional\/forward_lstm\/PartitionedCall\/while\/while_body_22873\/while\/split:3",
      "weights" : {

      },
      "mode" : 3,
      "debug_info" : "functional_1\/bidirectional\/forward_lstm\/PartitionedCall\/while\/while_body_22873\/while\/Sigmoid_2",
      "top" : "functional_1\/bidirectional\/forward_lstm\/PartitionedCall\/while\/while_body_22873\/while\/Sigmoid_2",
      "type" : "activation",
      "name" : "functional_1\/bidirectional\/forward_lstm\/PartitionedCall\/while\/while_body_22873\/while\/Sigmoid_2"
    },
    {
      "bottom" : "functional_1\/bidirectional\/forward_lstm\/PartitionedCall\/while\/while_body_22873\/while\/Sigmoid_1,functional_1\/bidirectional\/forward_lstm\/PartitionedCall\/while:4_@ssa_version_2",
      "alpha" : 1,
      "operation" : 1,
      "weights" : {

      },
      "fused_relu" : 0,
      "debug_info" : "functional_1\/bidirectional\/forward_lstm\/PartitionedCall\/while\/while_body_22873\/while\/mul",
      "nd_mode" : true,
      "top" : "functional_1\/bidirectional\/forward_lstm\/PartitionedCall\/while\/while_body_22873\/while\/mul",
      "type" : "elementwise",
      "name" : "functional_1\/bidirectional\/forward_lstm\/PartitionedCall\/while\/while_body_22873\/while\/mul",
      "beta" : 0
    },
    {
      "bottom" : "functional_1\/bidirectional\/forward_lstm\/PartitionedCall\/while\/while_body_22873\/while\/Tanh,functional_1\/bidirectional\/forward_lstm\/PartitionedCall\/while\/while_body_22873\/while\/Sigmoid",
      "alpha" : 1,
      "operation" : 1,
      "weights" : {

      },
      "fused_relu" : 0,
      "debug_info" : "functional_1\/bidirectional\/forward_lstm\/PartitionedCall\/while\/while_body_22873\/while\/mul_1",
      "top" : "functional_1\/bidirectional\/forward_lstm\/PartitionedCall\/while\/while_body_22873\/while\/mul_1",
      "type" : "elementwise",
      "name" : "functional_1\/bidirectional\/forward_lstm\/PartitionedCall\/while\/while_body_22873\/while\/mul_1",
      "beta" : 0
    },
    {
      "bottom" : "functional_1\/bidirectional\/forward_lstm\/PartitionedCall\/while\/while_body_22873\/while\/mul,functional_1\/bidirectional\/forward_lstm\/PartitionedCall\/while\/while_body_22873\/while\/mul_1",
      "alpha" : 1,
      "operation" : 0,
      "weights" : {

      },
      "fused_relu" : 0,
      "debug_info" : "functional_1\/bidirectional\/forward_lstm\/PartitionedCall\/while\/while_body_22873\/while\/add_1",
      "nd_mode" : true,
      "top" : "functional_1\/bidirectional\/forward_lstm\/PartitionedCall\/while\/while_body_22873\/while\/add_1",
      "type" : "elementwise",
      "name" : "functional_1\/bidirectional\/forward_lstm\/PartitionedCall\/while\/while_body_22873\/while\/add_1",
      "beta" : 0
    },
    {
      "bottom" : "functional_1\/bidirectional\/forward_lstm\/PartitionedCall\/while\/while_body_22873\/while\/TensorArrayV2Read_1\/TensorListGetItem,functional_1\/bidirectional\/forward_lstm\/PartitionedCall\/while\/while_body_22873\/while\/add_1,functional_1\/bidirectional\/forward_lstm\/PartitionedCall\/while:4_@ssa_version_2",
      "alpha" : 1,
      "operation" : 101,
      "weights" : {

      },
      "fused_relu" : 0,
      "debug_info" : "functional_1\/bidirectional\/forward_lstm\/PartitionedCall\/while\/while_body_22873\/while\/SelectV2_2",
      "nd_mode" : true,
      "top" : "functional_1\/bidirectional\/forward_lstm\/PartitionedCall\/while\/while_body_22873\/while\/SelectV2_2",
      "type" : "elementwise",
      "name" : "functional_1\/bidirectional\/forward_lstm\/PartitionedCall\/while\/while_body_22873\/while\/SelectV2_2",
      "beta" : 0
    },
    {
      "bottom" : "functional_1\/bidirectional\/forward_lstm\/PartitionedCall\/while\/while_body_22873\/while\/add_1",
      "weights" : {

      },
      "mode" : 1,
      "debug_info" : "functional_1\/bidirectional\/forward_lstm\/PartitionedCall\/while\/while_body_22873\/while\/Tanh_1",
      "top" : "functional_1\/bidirectional\/forward_lstm\/PartitionedCall\/while\/while_body_22873\/while\/Tanh_1",
      "type" : "activation",
      "name" : "functional_1\/bidirectional\/forward_lstm\/PartitionedCall\/while\/while_body_22873\/while\/Tanh_1"
    },
    {
      "bottom" : "functional_1\/bidirectional\/forward_lstm\/PartitionedCall\/while\/while_body_22873\/while\/Sigmoid_2,functional_1\/bidirectional\/forward_lstm\/PartitionedCall\/while\/while_body_22873\/while\/Tanh_1",
      "alpha" : 1,
      "operation" : 1,
      "weights" : {

      },
      "fused_relu" : 0,
      "debug_info" : "functional_1\/bidirectional\/forward_lstm\/PartitionedCall\/while\/while_body_22873\/while\/mul_2",
      "nd_mode" : true,
      "top" : "functional_1\/bidirectional\/forward_lstm\/PartitionedCall\/while\/while_body_22873\/while\/mul_2",
      "type" : "elementwise",
      "name" : "functional_1\/bidirectional\/forward_lstm\/PartitionedCall\/while\/while_body_22873\/while\/mul_2",
      "beta" : 0
    },
    {
      "bottom" : "functional_1\/bidirectional\/forward_lstm\/PartitionedCall\/while\/while_body_22873\/while\/TensorArrayV2Read_1\/TensorListGetItem,functional_1\/bidirectional\/forward_lstm\/PartitionedCall\/while\/while_body_22873\/while\/mul_2,functional_1\/bidirectional\/forward_lstm\/PartitionedCall\/zeros_like",
      "alpha" : 1,
      "operation" : 101,
      "weights" : {

      },
      "fused_relu" : 0,
      "debug_info" : "functional_1\/bidirectional\/forward_lstm\/PartitionedCall\/while\/while_body_22873\/while\/SelectV2",
      "nd_mode" : true,
…
      },
      "tf_make_list_4_@ssa_version_1" : {
        "k" : 1,
        "w" : 1,
        "n" : 1,
        "h" : 1
      },
      "tf_make_list_7_element_shape" : {
        "k" : 1,
        "w" : 2,
        "n" : 1,
        "_rank" : 1,
        "h" : 1
      },
      "range_1d_1_max_squeeze" : {
        "k" : 1,
        "w" : 1,
        "n" : 1,
        "_rank" : 1,
        "h" : 1
      },
      "functional_1\/bidirectional_1\/backward_lstm_1\/PartitionedCall\/while:1_alloc" : {
        "k" : 1,
        "w" : 1,
        "n" : 1,
        "h" : 1
      },
      "range_1d_4_max_squeeze" : {
        "k" : 1,
        "w" : 1,
        "n" : 1,
        "_rank" : 1,
        "h" : 1
      },
      "tf_make_list_1_re_initialize" : {
        "k" : 1,
        "w" : 1,
        "n" : 1,
        "h" : 1
      },
      "tf_make_list_7_reduce_any__squeeze__" : {
        "k" : 1,
        "w" : 1,
        "n" : 1,
        "h" : 1
      },
      "functional_1\/bidirectional_1\/backward_lstm_1\/PartitionedCall\/while\/while_body_27925\/while\/SelectV2_2" : {
        "k" : 1,
        "w" : 800,
        "n" : 1,
        "_rank" : 2,
        "h" : 1
      },
      "functional_1\/bidirectional\/forward_lstm\/PartitionedCall\/while:0" : {
        "k" : 1,
        "w" : 1,
        "n" : 1,
        "_rank" : 1,
        "h" : 1
      },
      "functional_1\/bidirectional\/forward_lstm\/PartitionedCall\/while:1_value_elem_shape" : {
        "k" : 1,
        "w" : 2,
        "n" : 1,
        "_rank" : 1,
        "h" : 1
      },
      "functional_1\/bidirectional_1\/forward_lstm_1\/PartitionedCall\/while:1_@ssa_version_5" : {
        "k" : 1,
        "w" : 1,
        "n" : 1,
        "h" : 1
      },
      "functional_1\/bidirectional_1\/backward_lstm_1\/PartitionedCall\/while\/while_body_27925\/while\/MatMul_1" : {
        "k" : 1,
        "w" : 1,
        "n" : 1,
        "h" : 1
      },
      "functional_1\/bidirectional\/forward_lstm\/PartitionedCall\/TensorArrayV2_1" : {
        "k" : 82,
        "w" : 200,
        "n" : 1,
        "_rank" : 3,
        "h" : 1
      },
      "tf_make_list_2_reduce_any__squeeze__" : {
        "k" : 1,
        "w" : 1,
        "n" : 1,
        "_rank" : 1,
        "h" : 1
      },
      "functional_1\/bidirectional_1\/forward_lstm_1\/PartitionedCall\/while\/while_body_26245\/while\/Tanh" : {
        "k" : 0,
        "w" : 800,
        "n" : 1,
        "_rank" : 4,
        "h" : 1
      },
      "tf_make_list_3_@ssa_version_4" : {
        "k" : 82,
        "w" : 1,
        "n" : 1,
        "_rank" : 3,
        "h" : 1
      },
      "tf_make_list_1_elem_shape_not_equal" : {
        "k" : 1,
        "w" : 2,
        "n" : 1,
        "_rank" : 1,
        "h" : 1
      },
      "tf_make_list_4_elem_shape_not_equal" : {
        "k" : 1,
        "w" : 1,
        "n" : 1,
        "h" : 1
      },
      "functional_1\/bidirectional_1\/backward_lstm_1\/PartitionedCall\/while\/while_body_27925\/while\/TensorArrayV2Read\/TensorListGetItem_gathered" : {
        "k" : 1,
        "w" : 1,
        "n" : 1,
        "_rank" : 4,
        "h" : 1
      },
      "functional_1\/bidirectional_1\/backward_lstm_1\/PartitionedCall\/while\/while_body_27925\/while\/add" : {
        "k" : 1,
        "w" : 1,
        "n" : 1,
        "h" : 1
      },
      "tf_make_list_7_elem_shape_not_equal" : {
        "k" : 1,
        "w" : 1,
        "n" : 1,
        "h" : 1
      },
      "functional_1\/bidirectional\/forward_lstm\/PartitionedCall\/while\/while_body_22873\/while\/TensorArrayV2Read_1\/TensorListGetItem" : {
        "k" : 1,
        "w" : 1,
        "n" : 1,
        "_rank" : 2,
        "h" : 1
      },
      "functional_1\/bidirectional\/backward_lstm\/PartitionedCall\/Tanh_1" : {
        "k" : 0,
        "w" : 800,
        "n" : 1,
        "_rank" : 4,
        "h" : 1
      },
      "functional_1\/bidirectional\/forward_lstm\/PartitionedCall\/while:4_@ssa_version_2" : {
        "k" : 1,
        "w" : 1,
        "n" : 1,
        "h" : 1
      },
      "tf_make_list_5_re_initialize_shape" : {
        "k" : 1,
        "w" : 4,
        "n" : 1,
        "_rank" : 1,
        "h" : 1
      },
      "Func\/functional_1\/bidirectional\/backward_lstm\/PartitionedCall\/input\/_16" : {
        "k" : 1,
        "w" : 800,
        "n" : 1,
        "_rank" : 2,
        "h" : 200
      },
      "tf_make_list_7_@ssa_version_5" : {
        "k" : 1,
        "w" : 1,
        "n" : 1,
        "h" : 1
      },
      "tf_make_list_1_re_initialize_shape" : {
        "k" : 1,
        "w" : 3,
        "n" : 1,
        "_rank" : 1,
        "h" : 1
      },
      "functional_1\/bidirectional\/forward_lstm\/PartitionedCall\/split:1" : {
        "k" : 0,
        "w" : 800,
        "n" : 1,
        "_rank" : 4,
        "h" : 1
      },
      "functional_1\/bidirectional_1\/forward_lstm_1\/PartitionedCall\/while:3_@ssa_version_2" : {
        "k" : 1,
        "w" : 1,
        "n" : 1,
        "h" : 1
      },
      "functional_1\/bidirectional\/backward_lstm\/PartitionedCall\/while\/while_body_24553\/while\/split:1" : {
        "k" : 0,
        "w" : 800,
        "n" : 1,
        "_rank" : 4,
        "h" : 1
      },
      "tf_make_list_7_alloc_shape" : {
        "k" : 1,
        "w" : 3,
        "n" : 1,
        "_rank" : 1,
        "h" : 1
      },
      "functional_1\/bidirectional\/backward_lstm\/PartitionedCall\/while:1_alloc" : {
        "k" : 1,
        "w" : 1,
        "n" : 1,
        "h" : 1
      },
      "tf_make_list_2_alloc_shape" : {
        "k" : 1,
        "w" : 3,
        "n" : 1,
        "_rank" : 1,
        "h" : 1
      },
      "functional_1\/bidirectional\/backward_lstm\/PartitionedCall\/while\/while_body_24553\/while\/MatMul_1" : {
        "k" : 1,
        "w" : 1,
        "n" : 1,
        "h" : 1
      },
      "functional_1\/bidirectional\/backward_lstm\/PartitionedCall\/Sigmoid_1" : {
        "k" : 0,
        "w" : 800,
        "n" : 1,
        "_rank" : 4,
        "h" : 1
      },
      "tf_make_list_2_alloc" : {
        "k" : 1,
        "w" : 1,
        "n" : 1,
        "h" : 1
      },
      "functional_1\/bidirectional_1\/backward_lstm_1\/PartitionedCall\/while\/while_body_27925\/while\/Sigmoid_1" : {
        "k" : 0,
        "w" : 800,
        "n" : 1,
        "_rank" : 4,
        "h" : 1
      },
      "functional_1\/bidirectional\/backward_lstm\/PartitionedCall\/Sigmoid_2" : {
        "k" : 0,
        "w" : 800,
        "n" : 1,
        "_rank" : 4,
        "h" : 1
      },
      "functional_1\/bidirectional_1\/forward_lstm_1\/PartitionedCall\/TensorArrayV2_1" : {
        "k" : 1,
        "w" : 1,
        "n" : 1,
        "h" : 1
      },
      "tf_make_list_1_full_shape" : {
        "k" : 1,
        "w" : 3,
        "n" : 1,
        "_rank" : 1,
        "h" : 1
      },
      "functional_1\/bidirectional\/forward_lstm\/PartitionedCall\/while\/while_body_22873\/while\/SelectV2_2" : {
        "k" : 1,
        "w" : 800,
        "n" : 1,
        "_rank" : 2,
        "h" : 1
      },
      "functional_1\/bidirectional_1\/backward_lstm_1\/PartitionedCall\/while\/while_body_27925\/while\/Sigmoid_2" : {
        "k" : 0,
        "w" : 800,
        "n" : 1,
        "_rank" : 4,
        "h" : 1
      },
      "functional_1\/bidirectional\/backward_lstm\/zeros_1\/packed" : {
        "k" : 1,
        "w" : 2,
        "n" : 1,
        "_rank" : 1,
        "h" : 1
      },
      "functional_1\/bidirectional_1\/backward_lstm_1\/PartitionedCall\/while:1_length" : {
        "k" : 1,
        "w" : 1,
        "n" : 1,
        "_rank" : 1,
        "h" : 1
      },
      "functional_1\/bidirectional_1\/backward_lstm_1\/PartitionedCall\/TensorArrayUnstack\/TensorListFromTensor" : {
        "k" : 1,
        "w" : 1,
        "n" : 1,
        "h" : 1
      },
      "functional_1\/bidirectional\/backward_lstm\/PartitionedCall\/time" : {
        "k" : 1,
        "w" : 1,
        "n" : 1,
        "_rank" : 1,
        "h" : 1
      },
      "functional_1\/bidirectional\/backward_lstm\/PartitionedCall\/while\/while_body_24553\/while\/Tanh" : {
        "k" : 0,
        "w" : 800,
        "n" : 1,
        "_rank" : 4,
        "h" : 1
      },
      "tf_make_list_2_full_shape" : {
        "k" : 1,
        "w" : 3,
        "n" : 1,
        "_rank" : 1,
        "h" : 1
      },
      "tf_make_list_0_raw_value_elem_shape" : {
        "k" : 1,
        "w" : 3,
        "n" : 1,
        "_rank" : 1,
        "h" : 1
      },
      "functional_1\/bidirectional\/forward_lstm\/PartitionedCall\/while:1_functional_1\/bidirectional\/forward_lstm\/PartitionedCall\/while\/while_body_22873\/while\/SelectV2_expanded" : {
        "k" : 1,
        "w" : 800,
        "n" : 1,
        "_rank" : 3,
        "h" : 1
      },
      "tf_make_list_3_raw_value_elem_shape" : {
        "k" : 1,
        "w" : 3,
        "n" : 1,
        "_rank" : 1,
        "h" : 1
      },
      "tf_make_list_6_raw_value_elem_shape" : {
        "k" : 1,
        "w" : 3,
        "n" : 1,
        "_rank" : 1,
        "h" : 1
      },
      "functional_1\/embedding\/Cast" : {
        "k" : 1,
        "w" : 82,
        "n" : 1,
        "_rank" : 2,
        "h" : 1
      },
      "tf_make_list_6_new" : {
        "k" : 1,
        "w" : 1,
        "n" : 2,
        "h" : 1
      },
      "functional_1\/bidirectional_1\/forward_lstm_1\/PartitionedCall\/transpose_2" : {
        "k" : 1,
        "w" : 1,
        "n" : 1,
        "_rank" : 4,
        "h" : 1
      },
      "functional_1\/bidirectional\/backward_lstm\/PartitionedCall\/Tanh" : {
        "k" : 0,
        "w" : 800,
        "n" : 1,
        "_rank" : 4,
        "h" : 1
      },
      "functional_1\/bidirectional_1\/backward_lstm_1\/PartitionedCall\/while\/while_body_27925\/while\/add_1" : {
        "k" : 0,
        "w" : 800,
        "n" : 1,
        "_rank" : 4,
        "h" : 1
      },
      "functional_1\/bidirectional_1\/backward_lstm_1\/PartitionedCall\/while:0" : {
        "k" : 1,
        "w" : 1,
        "n" : 1,
        "_rank" : 1,
        "h" : 1
      },
      "tf_make_list_0_is_growing" : {
        "k" : 1,
        "w" : 1,
        "n" : 1,
        "_rank" : 1,
        "h" : 1
      },
      "tf_make_list_1_new" : {
        "k" : 83,
        "w" : 1,
        "n" : 1,
        "_rank" : 3,
        "h" : 1
      },
      "functional_1\/embedding\/embedding_lookup_expand_dims" : {
        "k" : 1,
        "w" : 1,
        "n" : 1,
        "_rank" : 3,
        "h" : 82
      },
      "tf_make_list_1_@ssa_version_1" : {
        "k" : 1,
        "w" : 1,
        "n" : 1,
        "h" : 1
      },
      "functional_1\/bidirectional_1\/backward_lstm_1\/PartitionedCall\/while:1" : {
        "k" : 1,
        "w" : 1,
        "n" : 1,
        "h" : 1
      },
      "tf_make_list_1_is_growing" : {
        "k" : 1,
        "w" : 1,
        "n" : 1,
        "_rank" : 1,
        "h" : 1
      },
      "functional_1\/bidirectional_1\/backward_lstm_1\/PartitionedCall\/while:1_@ssa_version_5" : {
        "k" : 1,
        "w" : 1,
        "n" : 1,
        "h" : 1
      },
      "functional_1\/bidirectional\/backward_lstm\/PartitionedCall\/while:1_extra_length0" : {
        "k" : 1,
        "w" : 1,
        "n" : 1,
        "_rank" : 1,
        "h" : 1
      },
      "functional_1\/bidirectional_1\/backward_lstm_1\/strided_slice" : {
        "k" : 1,
        "w" : 1,
        "n" : 1,
        "_rank" : 0,
        "h" : 1
      },
      "functional_1\/bidirectional\/backward_lstm\/PartitionedCall\/TensorArrayV2Stack\/TensorListStack" : {
        "k" : 1,
        "w" : 200,
        "n" : 1,
        "_rank" : 3,
        "h" : 1
      },
      "functional_1\/bidirectional\/forward_lstm\/PartitionedCall\/while:1_full_shape" : {
        "k" : 1,
        "w" : 3,
        "n" : 1,
        "_rank" : 1,
        "h" : 1
      },
      "functional_1\/bidirectional_1\/forward_lstm_1\/PartitionedCall\/while:1_extra_length0" : {
        "k" : 1,
        "w" : 1,
        "n" : 1,
        "_rank" : 1,
        "h" : 1
      },
      "functional_1\/bidirectional_1\/backward_lstm_1\/PartitionedCall\/while:2" : {
        "k" : 1,
        "w" : 1,
        "n" : 1,
        "h" : 1
      },
      "functional_1\/bidirectional_1\/backward_lstm_1\/PartitionedCall\/Sigmoid" : {
        "k" : 1,
        "w" : 800,
        "n" : 1,
        "_rank" : 4,
        "h" : 1
      },
      "functional_1\/bidirectional\/backward_lstm\/PartitionedCall\/mul_2" : {
        "k" : 0,
        "w" : 800,
        "n" : 1,
        "_rank" : 4,
        "h" : 1
      },
      "functional_1\/bidirectional_1\/forward_lstm_1\/PartitionedCall\/while:0_@ssa_version_4" : {
        "k" : 1,
        "w" : 1,
        "n" : 1,
        "_rank" : 1,
        "h" : 1
      },
      "tf_make_list_0_@ssa_version_4" : {
        "k" : 82,
        "w" : 1,
        "n" : 1,
        "_rank" : 3,
        "h" : 1
      },
      "list_length_0" : {
        "k" : 1,
        "w" : 1,
        "n" : 1,
        "_rank" : 1,
        "h" : 1
      },
      "tf_make_list_7_value_elem_shape" : {
        "k" : 1,
        "w" : 2,
        "n" : 1,
        "_rank" : 1,
        "h" : 1
      },
      "functional_1\/bidirectional\/forward_lstm\/PartitionedCall\/while\/while_body_22873\/while\/add" : {
        "k" : 1,
        "w" : 1,
        "n" : 1,
        "h" : 1
      },
      "tf_make_list_0_reduce_any" : {
        "k" : 1,
        "w" : 1,
        "n" : 1,
        "_rank" : 1,
        "h" : 1
      },
      "range_1d_6" : {
        "k" : 1,
        "w" : 1,
        "n" : 1,
        "_rank" : 1,
        "h" : 1
      },
      "Func\/functional_1\/bidirectional\/backward_lstm\/PartitionedCall\/input\/_17" : {
        "k" : 1,
        "w" : 800,
        "n" : 1,
        "_rank" : 1,
        "h" : 1
      },
      "functional_1\/bidirectional_1\/forward_lstm_1\/PartitionedCall\/while:1_re_initialize_shape" : {
        "k" : 1,
        "w" : 3,
        "n" : 1,
        "_rank" : 1,
        "h" : 1
      },
      "tf_make_list_5_@ssa_version_2" : {
        "k" : 83,
        "w" : 10,
        "n" : 1,
        "_rank" : 3,
        "h" : 1
      },
      "functional_1\/bidirectional\/forward_lstm\/PartitionedCall\/TensorArrayUnstack\/TensorListFromTensor" : {
        "k" : 1,
        "w" : 1,
        "n" : 1,
        "h" : 1
      },
      "functional_1\/bidirectional_1\/backward_lstm_1\/PartitionedCall\/while:3" : {
        "k" : 1,
        "w" : 1,
        "n" : 1,
        "h" : 1
      },
      "functional_1\/bidirectional_1\/backward_lstm_1\/PartitionedCall\/while:1_shape" : {
        "k" : 1,
        "w" : 4,
        "n" : 1,
        "_rank" : 1,
        "h" : 1
      },
      "functional_1\/bidirectional\/concat" : {
        "k" : 1,
        "w" : 400,
        "n" : 1,
        "_rank" : 3,
        "h" : 1
      },
      "tf_make_list_1_reduce_any" : {
        "k" : 1,
        "w" : 1,
        "n" : 1,
        "_rank" : 1,
        "h" : 1
      },
      "input_1" : {
        "k" : 1,
        "w" : 82,
        "n" : 1,
        "_rank" : 2,
        "h" : 1
      },
      "functional_1\/bidirectional\/backward_lstm\/PartitionedCall\/while:1_new" : {
        "k" : 83,
        "w" : 200,
        "n" : 1,
        "_rank" : 3,
        "h" : 1
      },
      "functional_1\/bidirectional\/backward_lstm\/PartitionedCall\/zeros_like" : {
        "k" : 1,
        "w" : 1,
        "n" : 1,
        "h" : 1
      },
      "functional_1\/bidirectional_1\/backward_lstm_1\/PartitionedCall\/while:0_@ssa_version_1" : {
        "k" : 1,
        "w" : 1,
        "n" : 1,
        "_rank" : 1,
        "h" : 1
      },
      "functional_1\/bidirectional_1\/forward_lstm_1\/PartitionedCall\/while\/while_body_26245\/while\/add_2" : {
        "k" : 1,
        "w" : 1,
        "n" : 1,
        "_rank" : 1,
        "h" : 1
      },
      "functional_1\/bidirectional_1\/backward_lstm_1\/PartitionedCall\/while:4" : {
        "k" : 1,
        "w" : 1,
        "n" : 1,
        "h" : 1
      },
      "functional_1\/bidirectional\/backward_lstm\/zeros" : {
        "k" : 1,
        "w" : 1,
        "n" : 1,
        "h" : 1
      },
      "functional_1\/bidirectional\/forward_lstm\/PartitionedCall\/while:1_@ssa_version_2" : {
        "k" : 83,
        "w" : 200,
        "n" : 1,
        "_rank" : 3,
        "h" : 1
      },
      "functional_1\/bidirectional\/forward_lstm\/PartitionedCall\/while:1" : {
        "k" : 82,
        "w" : 200,
        "n" : 1,
        "_rank" : 3,
        "h" : 1
      },
      "functional_1\/bidirectional\/forward_lstm\/PartitionedCall\/while:1_re_initialize_shape" : {
        "k" : 1,
        "w" : 3,
        "n" : 1,
        "_rank" : 1,
        "h" : 1
      },
      "tf_make_list_2_@ssa_version_2" : {
        "k" : 83,
        "w" : 1,
        "n" : 1,
        "_rank" : 3,
        "h" : 1
      },
      "range_1d_1" : {
        "k" : 1,
        "w" : 82,
        "n" : 1,
        "_rank" : 1,
        "h" : 1
      },
      "functional_1\/bidirectional_1\/forward_lstm_1\/PartitionedCall\/while:2_@ssa_version_1" : {
        "k" : 1,
        "w" : 800,
        "n" : 1,
        "_rank" : 2,
        "h" : 1
      },
      "functional_1\/bidirectional_1\/backward_lstm_1\/PartitionedCall\/while\/while_body_27925\/while\/mul_1" : {
        "k" : 0,
        "w" : 800,
        "n" : 1,
        "_rank" : 4,
        "h" : 1
      },
      "range_1d_0_max" : {
        "k" : 1,
        "w" : 1,
        "n" : 1,
        "_rank" : 1,
        "h" : 1
      },
      "functional_1\/bidirectional\/backward_lstm\/PartitionedCall\/while\/while_body_24553\/while\/add_2" : {
        "k" : 1,
        "w" : 1,
        "n" : 1,
        "_rank" : 1,
        "h" : 1
      },
      "functional_1\/bidirectional_1\/backward_lstm_1\/zeros" : {
        "k" : 1,
        "w" : 1,
        "n" : 1,
        "h" : 1
      },
      "functional_1\/bidirectional\/backward_lstm\/PartitionedCall\/while\/while_body_24553\/while\/mul" : {
        "k" : 0,
        "w" : 800,
        "n" : 1,
        "_rank" : 4,
        "h" : 1
      },
      "functional_1\/bidirectional\/forward_lstm\/PartitionedCall\/while:1_@ssa_version_4" : {
        "k" : 82,
        "w" : 200,
        "n" : 1,
        "_rank" : 3,
        "h" : 1
      },
      "tf_make_list_3_full_shape" : {
        "k" : 1,
        "w" : 3,
        "n" : 1,
        "_rank" : 1,
        "h" : 1
      },
      "functional_1\/bidirectional\/backward_lstm\/PartitionedCall\/while:1_is_growing" : {
        "k" : 1,
        "w" : 1,
        "n" : 1,
        "_rank" : 1,
        "h" : 1
      },
      "range_1d_3_max" : {
        "k" : 1,
        "w" : 1,
        "n" : 1,
        "_rank" : 1,
        "h" : 1
      },
      "functional_1\/bidirectional\/forward_lstm\/zeros_1\/packed" : {
        "k" : 1,
        "w" : 2,
        "n" : 1,
        "_rank" : 1,
        "h" : 1
      },
      "functional_1\/bidirectional_1\/forward_lstm_1\/zeros_1" : {
        "k" : 1,
        "w" : 1,
        "n" : 1,
        "h" : 1
      },
      "functional_1\/bidirectional_1\/backward_lstm_1\/PartitionedCall\/MatMul" : {
        "k" : 1,
        "w" : 800,
        "n" : 1,
        "_rank" : 2,
        "h" : 1
      },
      "functional_1\/bidirectional\/forward_lstm\/PartitionedCall\/split:2" : {
        "k" : 0,
        "w" : 800,
        "n" : 1,
        "_rank" : 4,
        "h" : 1
      },
      "functional_1\/bidirectional\/forward_lstm\/zeros_1" : {
        "k" : 1,
        "w" : 1,
        "n" : 1,
        "h" : 1
      },
      "functional_1\/bidirectional_1\/forward_lstm_1\/PartitionedCall\/while:1_@ssa_version_6" : {
        "k" : 1,
        "w" : 1,
        "n" : 1,
        "h" : 1
      },
      "functional_1\/bidirectional_1\/forward_lstm_1\/PartitionedCall\/Tanh" : {
        "k" : 0,
        "w" : 800,
        "n" : 1,
        "_rank" : 4,
        "h" : 1
      },
      "functional_1\/bidirectional\/forward_lstm\/PartitionedCall\/while:1_@ssa_version_6" : {
        "k" : 82,
        "w" : 200,
        "n" : 1,
        "_rank" : 3,
        "h" : 1
      },
      "tf_make_list_2_is_growing" : {
        "k" : 1,
        "w" : 1,
        "n" : 1,
        "_rank" : 1,
        "h" : 1
      },
      "functional_1\/bidirectional\/forward_lstm\/PartitionedCall\/MatMul" : {
        "k" : 1,
        "w" : 1,
        "n" : 1,
        "h" : 1
      },
      "functional_1\/bidirectional_1\/forward_lstm_1\/PartitionedCall\/while:1_extra_length1" : {
        "k" : 1,
        "w" : 1,
        "n" : 1,
        "_rank" : 1,
        "h" : 1
      },
      "functional_1\/bidirectional\/forward_lstm\/PartitionedCall\/while:3_@ssa_version_1" : {
        "k" : 1,
        "w" : 800,
        "n" : 1,
        "_rank" : 2,
        "h" : 1
      },
      "range_1d_9_max" : {
        "k" : 1,
        "w" : 1,
        "n" : 1,
        "_rank" : 1,
        "h" : 1
      },
      "functional_1\/bidirectional_1\/backward_lstm_1\/PartitionedCall\/while:1_elem_shape_not_equal" : {
        "k" : 1,
        "w" : 1,
        "n" : 1,
        "h" : 1
      },
      "functional_1\/bidirectional\/forward_lstm\/PartitionedCall\/TensorArrayV2Stack\/TensorListStack" : {
        "k" : 1,
        "w" : 200,
        "n" : 1,
        "_rank" : 3,
        "h" : 1
      },
      "functional_1\/bidirectional\/forward_lstm\/PartitionedCall\/while:1_@ssa_version_8" : {
        "k" : 82,
        "w" : 200,
        "n" : 1,
        "_rank" : 3,
        "h" : 1
      },
      "functional_1\/bidirectional_1\/forward_lstm_1\/PartitionedCall\/while:1_alloc_shape" : {
        "k" : 1,
        "w" : 3,
        "n" : 1,
        "_rank" : 1,
        "h" : 1
      },
      "functional_1\/bidirectional\/backward_lstm\/PartitionedCall\/while:0" : {
        "k" : 1,
        "w" : 1,
        "n" : 1,
        "_rank" : 1,
        "h" : 1
      },
      "functional_1\/bidirectional\/backward_lstm\/PartitionedCall\/while:1" : {
        "k" : 82,
        "w" : 200,
        "n" : 1,
        "_rank" : 3,
        "h" : 1
      },
      "tf_make_list_4_length" : {
        "k" : 1,
        "w" : 1,
        "n" : 1,
        "_rank" : 1,
        "h" : 1
      },
      "functional_1\/bidirectional\/backward_lstm\/PartitionedCall\/while:2" : {
        "k" : 1,
        "w" : 1,
        "n" : 1,
        "h" : 1
      },
      "functional_1\/bidirectional\/backward_lstm\/PartitionedCall\/while:3" : {
        "k" : 1,
        "w" : 1,
        "n" : 1,
        "h" : 1
      },
      "functional_1\/bidirectional\/backward_lstm\/PartitionedCall\/while:4" : {
        "k" : 1,
        "w" : 1,
        "n" : 1,
        "h" : 1
      },
      "tf_make_list_2_reduce_any" : {
        "k" : 1,
        "w" : 1,
        "n" : 1,
        "_rank" : 1,
        "h" : 1
      },
      "functional_1\/bidirectional\/forward_lstm\/PartitionedCall\/while:1_alloc_shape" : {
        "k" : 1,
        "w" : 3,
        "n" : 1,
        "_rank" : 1,
        "h" : 1
      },
      "shape_10" : {
        "k" : 1,
        "w" : 4,
        "n" : 1,
        "_rank" : 1,
        "h" : 1
      },
      "functional_1\/bidirectional_1\/backward_lstm_1\/PartitionedCall\/while:1_reduce_any" : {
        "k" : 1,
        "w" : 1,
        "n" : 1,
        "_rank" : 1,
        "h" : 1
      },
      "functional_1\/bidirectional_1\/backward_lstm_1\/PartitionedCall\/while\/while_body_27925\/while\/add_2" : {
        "k" : 1,
        "w" : 1,
        "n" : 1,
        "_rank" : 1,
        "h" : 1
      },
      "functional_1\/time_distributed\/Reshape" : {
        "k" : 1,
        "w" : 1,
        "n" : 1,
        "h" : 1
      },
      "functional_1\/bidirectional_1\/backward_lstm_1\/PartitionedCall\/Sigmoid_1" : {
        "k" : 0,
        "w" : 800,
        "n" : 1,
        "_rank" : 4,
        "h" : 1
      },
      "tf_make_list_3_reduce_any" : {
        "k" : 1,
        "w" : 1,
        "n" : 1,
        "_rank" : 1,
        "h" : 1
      },
      "Func\/functional_1\/bidirectional_1\/backward_lstm_1\/PartitionedCall\/input\/_40" : {
        "k" : 1,
        "w" : 800,
        "n" : 1,
        "_rank" : 2,
        "h" : 200
      },
      "functional_1\/bidirectional_1\/backward_lstm_1\/PartitionedCall\/Tanh_1" : {
        "k" : 0,
        "w" : 800,
        "n" : 1,
        "_rank" : 4,
        "h" : 1
      },
      "functional_1\/bidirectional\/backward_lstm\/PartitionedCall\/mul" : {
        "k" : 0,
        "w" : 800,
        "n" : 1,
        "_rank" : 4,
        "h" : 1
      },
      "tf_make_list_5_alloc" : {
        "k" : 1,
        "w" : 1,
        "n" : 1,
        "h" : 1
      },
      "functional_1\/bidirectional_1\/backward_lstm_1\/zeros_1" : {
        "k" : 1,
        "w" : 1,
        "n" : 1,
        "h" : 1
      },
      "tf_make_list_4_full_shape" : {
        "k" : 1,
        "w" : 3,
        "n" : 1,
        "_rank" : 1,
        "h" : 1
      },
      "functional_1\/bidirectional_1\/backward_lstm_1\/PartitionedCall\/TensorArrayV2_1" : {
        "k" : 1,
        "w" : 1,
        "n" : 1,
        "h" : 1
      },
      "tf_make_list_4_reduce_any__squeeze__" : {
        "k" : 1,
        "w" : 1,
        "n" : 1,
        "h" : 1
      },
      "functional_1\/bidirectional_1\/forward_lstm_1\/zeros_1\/packed\/1" : {
        "k" : 1,
        "w" : 1,
        "n" : 1,
        "_rank" : 1,
        "h" : 1
      },
      "functional_1\/bidirectional_1\/forward_lstm_1\/PartitionedCall\/MatMul" : {
        "k" : 1,
        "w" : 800,
        "n" : 1,
        "_rank" : 2,
        "h" : 1
      },
      "tf_make_list_3_value_elem_shape" : {
        "k" : 1,
        "w" : 2,
        "n" : 1,
        "_rank" : 1,
        "h" : 1
      },
      "functional_1\/bidirectional\/backward_lstm\/PartitionedCall\/transpose" : {
        "k" : 82,
        "w" : 10,
        "n" : 1,
        "h" : 1
      },
      "functional_1\/bidirectional_1\/forward_lstm_1\/PartitionedCall\/time" : {
        "k" : 1,
        "w" : 1,
        "n" : 1,
        "_rank" : 1,
        "h" : 1
      },
      "tf_make_list_5_full_shape" : {
        "k" : 1,
        "w" : 3,
        "n" : 1,
        "_rank" : 1,
        "h" : 1
      },
      "functional_1\/bidirectional_1\/backward_lstm_1\/PartitionedCall\/while:1_@ssa_version_2" : {
        "k" : 1,
        "w" : 1,
        "n" : 2,
        "h" : 1
      },
      "tf_make_list_7_extra_length1" : {
        "k" : 1,
        "w" : 1,
        "n" : 1,
        "_rank" : 1,
        "h" : 1
      },
      "functional_1\/bidirectional_1\/forward_lstm_1\/PartitionedCall\/while:1_value_elem_shape" : {
        "k" : 1,
        "w" : 2,
        "n" : 1,
        "_rank" : 1,
        "h" : 1
      },
      "functional_1\/bidirectional_1\/forward_lstm_1\/PartitionedCall\/while\/while_body_26245\/while\/SelectV2_1" : {
        "k" : 1,
        "w" : 800,
        "n" : 1,
        "_rank" : 2,
        "h" : 1
      },
      "tf_make_list_6_ls_elem_shape" : {
        "k" : 1,
        "w" : 3,
        "n" : 1,
        "_rank" : 1,
        "h" : 1
      },
      "functional_1\/bidirectional_1\/backward_lstm_1\/PartitionedCall\/Sigmoid_2" : {
        "k" : 0,
        "w" : 800,
        "n" : 1,
        "_rank" : 4,
        "h" : 1
      },
      "tf_make_list_3_@ssa_version_3" : {
        "k" : 82,
        "w" : 1,
        "n" : 1,
        "_rank" : 3,
        "h" : 1
      },
      "functional_1\/bidirectional\/backward_lstm\/PartitionedCall\/TensorArrayUnstack_1\/TensorListFromTensor" : {
        "k" : 82,
        "w" : 1,
        "n" : 1,
        "_rank" : 3,
        "h" : 1
      },
      "functional_1\/bidirectional_1\/forward_lstm_1\/PartitionedCall\/while\/while_body_26245\/while\/SelectV2_2" : {
        "k" : 1,
        "w" : 800,
        "n" : 1,
        "_rank" : 2,
        "h" : 1
      },
      "functional_1\/bidirectional\/forward_lstm\/PartitionedCall\/while:2" : {
        "k" : 1,
        "w" : 1,
        "n" : 1,
        "h" : 1
      },
      "functional_1\/bidirectional\/forward_lstm\/PartitionedCall\/while\/while_body_22873\/while\/MatMul" : {
        "k" : 1,
        "w" : 1,
        "n" : 1,
        "h" : 1
      },
      "functional_1\/bidirectional\/forward_lstm\/zeros\/packed" : {
        "k" : 1,
        "w" : 2,
        "n" : 1,
        "_rank" : 1,
        "h" : 1
      },
      "tf_make_list_3_is_growing" : {
        "k" : 1,
        "w" : 1,
        "n" : 1,
        "_rank" : 1,
        "h" : 1
      },
      "functional_1\/bidirectional_1\/forward_lstm_1\/PartitionedCall\/while:0_@ssa_version_5" : {
        "k" : 1,
        "w" : 1,
        "n" : 1,
        "_rank" : 1,
        "h" : 1
      },
      "functional_1\/bidirectional_1\/forward_lstm_1\/PartitionedCall\/MatMul_1" : {
        "k" : 1,
        "w" : 1,
        "n" : 1,
        "h" : 1
      },
      "functional_1\/bidirectional_1\/backward_lstm_1\/PartitionedCall\/while\/while_body_27925\/while\/mul_2" : {
        "k" : 0,
        "w" : 800,
        "n" : 1,
        "_rank" : 4,
        "h" : 1
      },
      "tf_make_list_7_@ssa_version_4" : {
        "k" : 1,
        "w" : 1,
        "n" : 1,
        "h" : 1
      },
      "Func\/functional_1\/bidirectional_1\/forward_lstm_1\/PartitionedCall\/input\/_28" : {
        "k" : 1,
        "w" : 800,
        "n" : 1,
        "_rank" : 2,
        "h" : 200
      },
      "tf_make_list_4_is_growing" : {
        "k" : 1,
        "w" : 1,
        "n" : 1,
        "_rank" : 1,
        "h" : 1
      },
      "tf_make_list_6_re_initialize_shape" : {
        "k" : 1,
        "w" : 3,
        "n" : 1,
        "_rank" : 1,
        "h" : 1
      },
      "functional_1\/bidirectional\/backward_lstm\/PartitionedCall\/while\/while_body_24553\/while\/split:0" : {
        "k" : 1,
        "w" : 800,
        "n" : 1,
        "_rank" : 4,
        "h" : 1
      },
      "functional_1\/bidirectional_1\/backward_lstm_1\/PartitionedCall\/ExpandDims" : {
        "k" : 1,
        "w" : 1,
        "n" : 1,
        "_rank" : 3,
        "h" : 82
      },
      "functional_1\/bidirectional\/backward_lstm\/PartitionedCall\/while\/while_body_24553\/while\/MatMul" : {
        "k" : 1,
        "w" : 1,
        "n" : 1,
        "h" : 1
      },
      "tf_make_list_6_alloc_shape" : {
        "k" : 1,
        "w" : 3,
        "n" : 1,
        "_rank" : 1,
        "h" : 1
      },
      "functional_1\/bidirectional\/forward_lstm\/PartitionedCall\/split:3" : {
        "k" : 0,
        "w" : 800,
        "n" : 1,
        "_rank" : 4,
        "h" : 1
      },
      "tf_make_list_5_extra_length1" : {
        "k" : 1,
        "w" : 1,
        "n" : 1,
        "_rank" : 1,
        "h" : 1
      },
      "tf_make_list_1_alloc_shape" : {
        "k" : 1,
        "w" : 3,
        "n" : 1,
        "_rank" : 1,
        "h" : 1
      },
      "functional_1\/bidirectional_1\/forward_lstm_1\/PartitionedCall\/while:1_functional_1\/bidirectional_1\/forward_lstm_1\/PartitionedCall\/while\/while_body_26245\/while\/SelectV2_expanded" : {
        "k" : 1,
        "w" : 800,
        "n" : 1,
        "_rank" : 3,
        "h" : 1
      },
      "functional_1\/bidirectional_1\/forward_lstm_1\/PartitionedCall\/mul" : {
        "k" : 0,
        "w" : 800,
        "n" : 1,
        "_rank" : 4,
        "h" : 1
      },
      "tf_make_list_4_ls_elem_shape" : {
        "k" : 1,
        "w" : 2,
        "n" : 1,
        "_rank" : 1,
        "h" : 1
      },
      "functional_1\/bidirectional_1\/forward_lstm_1\/PartitionedCall\/while\/while_body_26245\/while\/mul_1" : {
        "k" : 0,
        "w" : 800,
        "n" : 1,
        "_rank" : 4,
        "h" : 1
      },
      "functional_1\/bidirectional_1\/backward_lstm_1\/PartitionedCall\/while:0_@ssa_version_5" : {
        "k" : 1,
        "w" : 1,
        "n" : 1,
        "_rank" : 1,
        "h" : 1
      },
      "tf_make_list_4_reduce_any" : {
        "k" : 1,
        "w" : 1,
        "n" : 1,
        "_rank" : 1,
        "h" : 1
      },
      "functional_1\/bidirectional_1\/forward_lstm_1\/PartitionedCall\/add" : {
        "k" : 1,
        "w" : 800,
        "n" : 1,
        "h" : 1
      },
      "functional_1\/bidirectional_1\/forward_lstm_1\/PartitionedCall\/add_1" : {
        "k" : 0,
        "w" : 800,
        "n" : 1,
        "_rank" : 4,
        "h" : 1
      },
      "tf_make_list_4_new" : {
        "k" : 83,
        "w" : 10,
        "n" : 1,
        "_rank" : 3,
        "h" : 1
      },
      "functional_1\/bidirectional_1\/backward_lstm_1\/PartitionedCall\/while\/while_cond_27924\/while\/Less" : {
        "k" : 1,
        "w" : 1,
        "n" : 1,
        "_rank" : 1,
        "h" : 1
      },
      "Func\/functional_1\/bidirectional_1\/backward_lstm_1\/PartitionedCall\/input\/_39" : {
        "k" : 1,
        "w" : 800,
        "n" : 1,
        "_rank" : 2,
        "h" : 400
      },
      "functional_1\/embedding\/Cast_cond_load_constant_3" : {
        "k" : 1,
        "w" : 1,
        "n" : 1,
        "h" : 1
      },
      "functional_1\/bidirectional_1\/backward_lstm_1\/PartitionedCall\/strided_slice" : {
        "k" : 1,
        "w" : 1,
        "n" : 1,
        "_rank" : 0,
        "h" : 1
      },
      "functional_1\/bidirectional_1\/forward_lstm_1\/zeros_1\/packed" : {
        "k" : 1,
        "w" : 2,
        "n" : 1,
        "_rank" : 1,
        "h" : 1
      },
      "functional_1\/bidirectional\/forward_lstm\/PartitionedCall\/while\/while_body_22873\/while\/TensorArrayV2Read\/TensorListGetItem" : {
        "k" : 1,
        "w" : 1,
        "n" : 1,
        "_rank" : 3,
        "h" : 1
      },
      "range_1d_8" : {
        "k" : 1,
        "w" : 1,
        "n" : 1,
        "_rank" : 1,
        "h" : 1
      },
      "functional_1\/bidirectional\/forward_lstm\/PartitionedCall\/while\/while_body_22873\/while\/TensorArrayV2Read_1\/TensorListGetItem_gathered" : {
        "k" : 1,
        "w" : 1,
        "n" : 1,
        "_rank" : 3,
        "h" : 1
      },
      "functional_1\/bidirectional\/forward_lstm\/PartitionedCall\/mul" : {
        "k" : 0,
        "w" : 800,
        "n" : 1,
        "_rank" : 4,
        "h" : 1
      },
      "functional_1\/bidirectional_1\/forward_lstm_1\/PartitionedCall\/while\/while_body_26245\/while\/SelectV2" : {
        "k" : 1,
        "w" : 800,
        "n" : 1,
        "_rank" : 2,
        "h" : 1
      },
      "functional_1\/bidirectional\/backward_lstm\/PartitionedCall\/while:1_reduce_any" : {
        "k" : 1,
        "w" : 1,
        "n" : 1,
        "_rank" : 1,
        "h" : 1
      },
      "functional_1\/bidirectional_1\/forward_lstm_1\/PartitionedCall\/while:1_@ssa_version_7" : {
        "k" : 1,
        "w" : 1,
        "n" : 1,
        "h" : 1
      },
      "tf_make_list_6_full_shape" : {
        "k" : 1,
        "w" : 4,
        "n" : 1,
        "_rank" : 1,
        "h" : 1
      },
      "functional_1\/bidirectional\/forward_lstm\/PartitionedCall\/while:1_reduce_any" : {
        "k" : 1,
        "w" : 1,
        "n" : 1,
        "_rank" : 1,
        "h" : 1
      },
      "tf_make_list_6_length" : {
        "k" : 1,
        "w" : 1,
        "n" : 1,
        "_rank" : 1,
        "h" : 1
      },
      "tf_make_list_3_extra_length1" : {
        "k" : 1,
        "w" : 1,
        "n" : 1,
        "_rank" : 1,
        "h" : 1
      },
      "functional_1\/bidirectional_1\/backward_lstm_1\/zeros\/packed\/1" : {
        "k" : 1,
        "w" : 1,
        "n" : 1,
        "_rank" : 1,
        "h" : 1
      },
      "tf_make_list_2_ls_elem_shape" : {
        "k" : 1,
        "w" : 2,
        "n" : 1,
        "_rank" : 1,
        "h" : 1
      },
      "tf_make_list_7_full_shape" : {
        "k" : 1,
        "w" : 4,
        "n" : 1,
        "_rank" : 1,
        "h" : 1
      },
      "functional_1\/bidirectional_1\/forward_lstm_1\/PartitionedCall\/TensorArrayV2Stack\/TensorListStack" : {
        "k" : 1,
        "w" : 1,
        "n" : 1,
        "_rank" : 4,
        "h" : 1
      },
      "functional_1\/bidirectional\/backward_lstm\/PartitionedCall\/while:1_shape" : {
        "k" : 1,
        "w" : 3,
        "n" : 1,
        "_rank" : 1,
        "h" : 1
      },
      "range_1d_3" : {
        "k" : 1,
        "w" : 82,
        "n" : 1,
        "_rank" : 1,
        "h" : 1
      },
      "tf_make_list_0_@ssa_version_3" : {
        "k" : 82,
        "w" : 1,
        "n" : 1,
        "_rank" : 3,
        "h" : 1
      },
      "tf_make_list_0_elem_shape_not_equal" : {
        "k" : 1,
        "w" : 2,
        "n" : 1,
        "_rank" : 1,
        "h" : 1
      },
      "tf_make_list_6_extra_length0" : {
        "k" : 1,
        "w" : 1,
        "n" : 1,
        "_rank" : 1,
        "h" : 1
      },
      "tf_make_list_5_@ssa_version_1" : {
        "k" : 1,
        "w" : 1,
        "n" : 1,
        "h" : 1
      },
      "functional_1\/bidirectional\/forward_lstm\/PartitionedCall\/mul_2" : {
        "k" : 0,
        "w" : 800,
        "n" : 1,
        "_rank" : 4,
        "h" : 1
      },
      "tf_make_list_5_is_growing" : {
        "k" : 1,
        "w" : 1,
        "n" : 1,
        "_rank" : 1,
        "h" : 1
      },
      "functional_1\/bidirectional_1\/forward_lstm_1\/strided_slice" : {
        "k" : 1,
        "w" : 1,
        "n" : 1,
        "_rank" : 0,
        "h" : 1
      },
      "tf_make_list_3_elem_shape_not_equal" : {
        "k" : 1,
        "w" : 2,
        "n" : 1,
        "_rank" : 1,
        "h" : 1
      },
      "range_1d_0_max_squeeze" : {
        "k" : 1,
        "w" : 1,
        "n" : 1,
        "_rank" : 1,
        "h" : 1
      },
      "tf_make_list_2_re_initialize_shape" : {
        "k" : 1,
        "w" : 3,
        "n" : 1,
        "_rank" : 1,
        "h" : 1
      },
      "functional_1\/bidirectional\/forward_lstm\/PartitionedCall\/while:0_@ssa_version_1" : {
        "k" : 1,
        "w" : 1,
        "n" : 1,
        "_rank" : 1,
        "h" : 1
      },
      "functional_1\/bidirectional\/forward_lstm\/PartitionedCall\/while\/while_body_22873\/while\/split:2" : {
        "k" : 0,
        "w" : 800,
        "n" : 1,
        "_rank" : 4,
        "h" : 1
      },
      "range_1d_3_max_squeeze" : {
        "k" : 1,
        "w" : 1,
        "n" : 1,
        "_rank" : 1,
        "h" : 1
      },
      "shape_11" : {
        "k" : 1,
        "w" : 4,
        "n" : 1,
        "_rank" : 1,
        "h" : 1
      },
      "tf_make_list_6_is_growing" : {
        "k" : 1,
        "w" : 1,
        "n" : 1,
        "_rank" : 1,
        "h" : 1
      },
      "tf_make_list_4_@ssa_version_4" : {
        "k" : 82,
        "w" : 10,
        "n" : 1,
        "_rank" : 3,
        "h" : 1
      },
      "functional_1\/bidirectional\/backward_lstm\/PartitionedCall\/TensorArrayV2_1" : {
        "k" : 82,
        "w" : 200,
        "n" : 1,
        "_rank" : 3,
        "h" : 1
      },
      "functional_1\/bidirectional\/forward_lstm\/PartitionedCall\/zeros_like" : {
        "k" : 1,
        "w" : 1,
        "n" : 1,
        "h" : 1
      },
      "functional_1\/bidirectional_1\/forward_lstm_1\/PartitionedCall\/while:1_alloc" : {
        "k" : 1,
        "w" : 1,
        "n" : 1,
        "h" : 1
      },
      "functional_1\/bidirectional\/backward_lstm\/PartitionedCall\/while\/while_body_24553\/while\/SelectV2" : {
        "k" : 1,
        "w" : 800,
        "n" : 1,
        "_rank" : 2,
        "h" : 1
      },
      "tf_make_list_1_extra_length1" : {
        "k" : 1,
        "w" : 1,
        "n" : 1,
        "_rank" : 1,
        "h" : 1
      },
      "tf_make_list_2_@ssa_version_1" : {
        "k" : 1,
        "w" : 1,
        "n" : 1,
        "h" : 1
      },
      "tf_make_list_5_reduce_any" : {
        "k" : 1,
        "w" : 1,
        "n" : 1,
        "_rank" : 1,
        "h" : 1
      },
      "tf_make_list_0_ls_elem_shape" : {
        "k" : 1,
        "w" : 2,
        "n" : 1,
        "_rank" : 1,
        "h" : 1
      },
      "functional_1\/bidirectional\/forward_lstm\/PartitionedCall\/while:0_@ssa_version_3" : {
        "k" : 1,
        "w" : 1,
        "n" : 1,
        "_rank" : 1,
        "h" : 1
      },
      "tf_make_list_1_alloc" : {
        "k" : 1,
        "w" : 1,
        "n" : 1,
        "h" : 1
      },
      "functional_1\/bidirectional\/forward_lstm\/PartitionedCall\/while\/while_body_22873\/while\/Sigmoid_2" : {
        "k" : 0,
        "w" : 800,
        "n" : 1,
        "_rank" : 4,
        "h" : 1
      },
      "functional_1\/bidirectional\/forward_lstm\/PartitionedCall\/while:3" : {
        "k" : 1,
        "w" : 1,
        "n" : 1,
        "h" : 1
      },
      "functional_1\/bidirectional_1\/backward_lstm_1\/zeros\/packed" : {
        "k" : 1,
        "w" : 2,
        "n" : 1,
        "_rank" : 1,
        "h" : 1
      },
      "functional_1\/bidirectional\/forward_lstm\/PartitionedCall\/ExpandDims" : {
        "k" : 1,
        "w" : 1,
        "n" : 1,
        "_rank" : 3,
        "h" : 82
      },
      "tf_make_list_6_reduce_any" : {
        "k" : 1,
        "w" : 1,
        "n" : 1,
        "_rank" : 1,
        "h" : 1
      },
      "functional_1\/bidirectional_1\/forward_lstm_1\/PartitionedCall\/mul_1" : {
        "k" : 0,
        "w" : 800,
        "n" : 1,
        "_rank" : 4,
        "h" : 1
      },
      "tf_make_list_6_@ssa_version_2" : {
        "k" : 1,
        "w" : 1,
        "n" : 2,
        "h" : 1
      },
      "functional_1\/bidirectional\/backward_lstm\/PartitionedCall\/split:0" : {
        "k" : 1,
        "w" : 800,
        "n" : 1,
        "_rank" : 4,
        "h" : 1
      },
      "list_length_3" : {
        "k" : 1,
        "w" : 1,
        "n" : 1,
        "_rank" : 1,
        "h" : 1
      },
      "functional_1\/bidirectional\/backward_lstm\/PartitionedCall\/split:1" : {
        "k" : 0,
        "w" : 800,
        "n" : 1,
        "_rank" : 4,
        "h" : 1
      },
      "functional_1\/bidirectional_1\/forward_lstm_1\/PartitionedCall\/mul_2" : {
        "k" : 0,
        "w" : 800,
        "n" : 1,
        "_rank" : 4,
        "h" : 1
      },
      "functional_1\/bidirectional\/backward_lstm\/PartitionedCall\/split:2" : {
        "k" : 0,
        "w" : 800,
        "n" : 1,
        "_rank" : 4,
        "h" : 1
      },
      "functional_1\/bidirectional\/backward_lstm\/zeros_1\/packed\/1" : {
        "k" : 1,
        "w" : 1,
        "n" : 1,
        "_rank" : 1,
        "h" : 1
      },
      "functional_1\/bidirectional\/backward_lstm\/PartitionedCall\/split:3" : {
        "k" : 0,
        "w" : 800,
        "n" : 1,
        "_rank" : 4,
        "h" : 1
      },
      "functional_1\/bidirectional\/backward_lstm\/PartitionedCall\/TensorArrayUnstack\/TensorListFromTensor" : {
        "k" : 1,
        "w" : 1,
        "n" : 1,
        "h" : 1
      },
      "tf_make_list_4_extra_length0" : {
        "k" : 1,
        "w" : 1,
        "n" : 1,
        "_rank" : 1,
        "h" : 1
      },
      "functional_1\/bidirectional\/backward_lstm\/PartitionedCall\/while\/while_body_24553\/while\/Sigmoid_1" : {
        "k" : 0,
        "w" : 800,
        "n" : 1,
        "_rank" : 4,
        "h" : 1
      },
      "functional_1\/bidirectional\/forward_lstm\/PartitionedCall\/while:0_@ssa_version_5" : {
        "k" : 1,
        "w" : 1,
        "n" : 1,
        "_rank" : 1,
        "h" : 1
      },
      "functional_1\/bidirectional_1\/forward_lstm_1\/PartitionedCall\/BiasAdd" : {
        "k" : 1,
        "w" : 800,
        "n" : 1,
        "h" : 1
      },
      "functional_1\/bidirectional_1\/backward_lstm_1\/PartitionedCall\/while:1_functional_1\/bidirectional_1\/backward_lstm_1\/PartitionedCall\/while\/while_body_27925\/while\/SelectV2_expanded" : {
        "k" : 1,
        "w" : 800,
        "n" : 1,
        "_rank" : 3,
        "h" : 1
      },
      "tf_make_list_2_raw_value_elem_shape" : {
        "k" : 1,
        "w" : 3,
        "n" : 1,
        "_rank" : 1,
        "h" : 1
      },
      "functional_1\/bidirectional_1\/backward_lstm_1\/PartitionedCall\/while:1_@ssa_version_6" : {
        "k" : 1,
        "w" : 1,
        "n" : 1,
        "h" : 1
      },
      "functional_1\/bidirectional\/backward_lstm\/PartitionedCall\/while\/while_body_24553\/while\/TensorArrayV2Write\/TensorListSetItem" : {
        "k" : 1,
        "w" : 1,
        "n" : 1,
        "h" : 1
      },
      "functional_1\/bidirectional_1\/forward_lstm_1\/PartitionedCall\/while:1_is_growing" : {
        "k" : 1,
        "w" : 1,
        "n" : 1,
        "_rank" : 1,
        "h" : 1
      },
      "functional_1\/bidirectional_1\/forward_lstm_1\/PartitionedCall\/while:0_@ssa_version_6" : {
        "k" : 1,
        "w" : 1,
        "n" : 1,
        "_rank" : 1,
        "h" : 1
      },
      "functional_1\/bidirectional_1\/backward_lstm_1\/Shape" : {
        "k" : 1,
        "w" : 3,
        "n" : 1,
        "_rank" : 1,
        "h" : 1
      },
      "functional_1\/bidirectional\/backward_lstm\/zeros\/packed\/1" : {
        "k" : 1,
        "w" : 1,
        "n" : 1,
        "_rank" : 1,
        "h" : 1
      },
      "Func\/functional_1\/bidirectional_1\/backward_lstm_1\/PartitionedCall\/input\/_41" : {
        "k" : 1,
        "w" : 800,
        "n" : 1,
        "_rank" : 1,
        "h" : 1
      },
      "functional_1\/bidirectional\/backward_lstm\/PartitionedCall\/while\/while_body_24553\/while\/mul_2" : {
        "k" : 0,
        "w" : 800,
        "n" : 1,
        "_rank" : 4,
        "h" : 1
      },
      "tf_make_list_6_elem_shape_not_equal" : {
        "k" : 1,
        "w" : 1,
        "n" : 1,
        "h" : 1
      },
      "functional_1\/bidirectional\/backward_lstm\/PartitionedCall\/ReverseV2" : {
        "k" : 82,
        "w" : 1,
        "n" : 1,
        "_rank" : 4,
        "h" : 1
      },
      "functional_1\/bidirectional\/forward_lstm\/PartitionedCall\/while:1_extra_length1" : {
        "k" : 1,
        "w" : 1,
        "n" : 1,
        "_rank" : 1,
        "h" : 1
      },
      "functional_1\/bidirectional\/forward_lstm\/PartitionedCall\/while:1_shape" : {
        "k" : 1,
        "w" : 3,
        "n" : 1,
        "_rank" : 1,
        "h" : 1
      },
      "tf_make_list_1" : {
        "k" : 82,
        "w" : 1,
        "n" : 1,
        "_rank" : 3,
        "h" : 1
      },
      "functional_1\/bidirectional_1\/forward_lstm_1\/PartitionedCall\/strided_slice_1" : {
        "k" : 1,
        "w" : 400,
        "n" : 1,
        "_rank" : 2,
        "h" : 1
      },
      "functional_1\/bidirectional\/forward_lstm\/PartitionedCall\/Sigmoid" : {
        "k" : 1,
        "w" : 800,
        "n" : 1,
        "_rank" : 4,
        "h" : 1
      },
      "tf_make_list_2_extra_length0" : {
        "k" : 1,
        "w" : 1,
        "n" : 1,
        "_rank" : 1,
        "h" : 1
      },
      "functional_1\/bidirectional_1\/backward_lstm_1\/PartitionedCall\/while:0_@ssa_version_2" : {
        "k" : 1,
        "w" : 1,
        "n" : 1,
        "_rank" : 1,
        "h" : 1
      },
      "functional_1\/bidirectional\/backward_lstm\/PartitionedCall\/MatMul_1" : {
        "k" : 1,
        "w" : 1,
        "n" : 1,
        "h" : 1
      },
      "tf_make_list_4_value_elem_shape" : {
        "k" : 1,
        "w" : 3,
        "n" : 1,
        "_rank" : 1,
        "h" : 1
      },
      "functional_1\/bidirectional\/forward_lstm\/PartitionedCall\/add" : {
        "k" : 1,
        "w" : 1,
        "n" : 1,
        "h" : 1
      },
      "range_1d_9_max_squeeze" : {
        "k" : 1,
        "w" : 1,
        "n" : 1,
        "_rank" : 1,
        "h" : 1
      },
      "tf_make_list_7_is_growing" : {
        "k" : 1,
        "w" : 1,
        "n" : 1,
        "_rank" : 1,
        "h" : 1
      },
      "functional_1\/bidirectional\/backward_lstm\/PartitionedCall\/while\/while_body_24553\/while\/TensorArrayV2Read_1\/TensorListGetItem" : {
        "k" : 1,
        "w" : 1,
        "n" : 1,
        "_rank" : 2,
        "h" : 1
      },
      "tf_make_list_3" : {
        "k" : 82,
        "w" : 1,
        "n" : 1,
        "_rank" : 3,
        "h" : 1
      },
      "functional_1\/bidirectional_1\/backward_lstm_1\/PartitionedCall\/while\/while_body_27925\/while\/split:0" : {
        "k" : 1,
        "w" : 800,
        "n" : 1,
        "_rank" : 4,
        "h" : 1
      },
      "functional_1\/bidirectional_1\/backward_lstm_1\/PartitionedCall\/while\/while_body_27925\/while\/split:1" : {
        "k" : 0,
        "w" : 800,
        "n" : 1,
        "_rank" : 4,
        "h" : 1
      },
      "functional_1\/bidirectional_1\/backward_lstm_1\/PartitionedCall\/while\/while_body_27925\/while\/split:2" : {
        "k" : 0,
        "w" : 800,
        "n" : 1,
        "_rank" : 4,
        "h" : 1
      },
      "functional_1\/bidirectional_1\/backward_lstm_1\/PartitionedCall\/while\/while_body_27925\/while\/split:3" : {
        "k" : 0,
        "w" : 800,
        "n" : 1,
        "_rank" : 4,
        "h" : 1
      },
      "tf_make_list_1_@ssa_version_4" : {
        "k" : 82,
        "w" : 1,
        "n" : 1,
        "_rank" : 3,
        "h" : 1
      },
      "tf_make_list_5_alloc_shape" : {
        "k" : 1,
        "w" : 4,
        "n" : 1,
        "_rank" : 1,
        "h" : 1
      },
      "functional_1\/bidirectional_1\/forward_lstm_1\/PartitionedCall\/while:1_@ssa_version_1" : {
        "k" : 1,
        "w" : 1,
        "n" : 1,
        "h" : 1
      },
      "tf_make_list_1_length" : {
        "k" : 1,
        "w" : 1,
        "n" : 1,
        "_rank" : 1,
        "h" : 1
      },
      "tf_make_list_6_reduce_any__squeeze__" : {
        "k" : 1,
        "w" : 1,
        "n" : 1,
        "h" : 1
      },
      "tf_make_list_7_reduce_any" : {
        "k" : 1,
        "w" : 1,
        "n" : 1,
        "_rank" : 1,
        "h" : 1
      },
      "tf_make_list_5" : {
        "k" : 82,
        "w" : 10,
        "n" : 1,
        "_rank" : 3,
        "h" : 1
      },
      "tf_make_list_6_re_initialize" : {
        "k" : 1,
        "w" : 1,
        "n" : 1,
        "h" : 1
      },
      "tf_make_list_1_reduce_any__squeeze__" : {
        "k" : 1,
        "w" : 1,
        "n" : 1,
        "_rank" : 1,
        "h" : 1
      }
    },
    "global_shapes" : {

    }
  },
  "subnetworks" : {

  }
}